…
I0723 00:37:03.281566  2784 caffe.cpp:270] GPU device name: P106-100
I0723 00:37:05.520632  2784 net.cpp:296] The NetState phase (1) differed from the phase (0) specified by a rule in layer data
I0723 00:37:05.521076  2784 net.cpp:53] Initializing net from parameters: 
name: "tiny_shrinked_resnet10"
state {
  phase: TEST
  level: 0
  stage: ""
}
layer {
  name: "data"
  type: "Data"
  top: "data"
  top: "label"
  include {
    phase: TEST
  }
  data_param {
    source: "/home/kenny/Desktop/AI-For-CV/week6_9_TinyProj/tiny_caffe_project/data_lmdb/test_lmdb"
    batch_size: 1
    backend: LMDB
  }
}
layer {
  name: "conv1"
  type: "Convolution"
  bottom: "data"
  top: "conv1"
  convolution_param {
    num_output: 32
    bias_term: false
    pad: 1
    kernel_size: 3
    stride: 1
    weight_filler {
      type: "msra"
    }
  }
}
layer {
  name: "bn_conv1"
  type: "BatchNorm"
  bottom: "conv1"
  top: "conv1"
  batch_norm_param {
    moving_average_fraction: 0.9
  }
}
layer {
  name: "scale_conv1"
  type: "Scale"
  bottom: "conv1"
  top: "conv1"
  scale_param {
    bias_term: true
  }
}
layer {
  name: "conv1_relu"
  type: "ReLU"
  bottom: "conv1"
  top: "conv1"
}
layer {
  name: "res2a_branch1"
  type: "Convolution"
  bottom: "conv1"
  top: "res2a_branch1"
  convolution_param {
    num_output: 32
    bias_term: false
    pad: 0
    kernel_size: 1
    stride: 1
    weight_filler {
      type: "msra"
    }
  }
}
layer {
  name: "bn2a_branch1"
  type: "BatchNorm"
  bottom: "res2a_branch1"
  top: "res2a_branch1"
  batch_norm_param {
    moving_average_fraction: 0.9
  }
}
layer {
  name: "scale2a_branch1"
  type: "Scale"
  bottom: "res2a_branch1"
  top: "res2a_branch1"
  scale_param {
    bias_term: true
  }
}
layer {
  name: "res2a_branch2a"
  type: "Convolution"
  bottom: "conv1"
  top: "res2a_branch2a"
  convolution_param {
    num_output: 32
    bias_term: false
    pad: 1
    kernel_size: 3
    stride: 1
    weight_filler {
      type: "msra"
    }
  }
}
layer {
  name: "bn2a_branch2a"
  type: "BatchNorm"
  bottom: "res2a_branch2a"
  top: "res2a_branch2a"
  batch_norm_param {
    moving_average_fraction: 0.9
  }
}
layer {
  name: "scale2a_branch2a"
  type: "Scale"
  bottom: "res2a_branch2a"
  top: "res2a_branch2a"
  scale_param {
    bias_term: true
  }
}
layer {
  name: "res2a_branch2a_relu"
  type: "ReLU"
  bottom: "res2a_branch2a"
  top: "res2a_branch2a"
}
layer {
  name: "res2a_branch2b"
  type: "Convolution"
  bottom: "res2a_branch2a"
  top: "res2a_branch2b"
  convolution_param {
    num_output: 32
    bias_term: false
    pad: 1
    kernel_size: 3
    stride: 1
    weight_filler {
      type: "msra"
    }
  }
}
layer {
  name: "bn2a_branch2b"
  type: "BatchNorm"
  bottom: "res2a_branch2b"
  top: "res2a_branch2b"
  batch_norm_param {
    moving_average_fraction: 0.9
  }
}
layer {
  name: "scale2a_branch2b"
  type: "Scale"
  bottom: "res2a_branch2b"
  top: "res2a_branch2b"
  scale_param {
    bias_term: true
  }
}
layer {
  name: "res2a"
  type: "Eltwise"
  bottom: "res2a_branch1"
  bottom: "res2a_branch2b"
  top: "res2a"
  eltwise_param {
    operation: SUM
  }
}
layer {
  name: "res2a_relu"
  type: "ReLU"
  bottom: "res2a"
  top: "res2a"
}
layer {
  name: "res2b_branch2a"
  type: "Convolution"
  bottom: "res2a"
  top: "res2b_branch2a"
  convolution_param {
    num_output: 32
    bias_term: false
    pad: 1
    kernel_size: 3
    stride: 1
    weight_filler {
      type: "msra"
    }
  }
}
layer {
  name: "bn2b_branch2a"
  type: "BatchNorm"
  bottom: "res2b_branch2a"
  top: "res2b_branch2a"
  batch_norm_param {
    moving_average_fraction: 0.9
  }
}
layer {
  name: "scale2b_branch2a"
  type: "Scale"
  bottom: "res2b_branch2a"
  top: "res2b_branch2a"
  scale_param {
    bias_term: true
  }
}
layer {
  name: "res2b_branch2a_relu"
  type: "ReLU"
  bottom: "res2b_branch2a"
  top: "res2b_branch2a"
}
layer {
  name: "res2b_branch2b"
  type: "Convolution"
  bottom: "res2b_branch2a"
  top: "res2b_branch2b"
  convolution_param {
    num_output: 32
    bias_term: false
    pad: 1
    kernel_size: 3
    stride: 1
    weight_filler {
      type: "msra"
    }
  }
}
layer {
  name: "bn2b_branch2b"
  type: "BatchNorm"
  bottom: "res2b_branch2b"
  top: "res2b_branch2b"
  batch_norm_param {
    moving_average_fraction: 0.9
  }
}
layer {
  name: "scale2b_branch2b"
  type: "Scale"
  bottom: "res2b_branch2b"
  top: "res2b_branch2b"
  scale_param {
    bias_term: true
  }
}
layer {
  name: "res2b"
  type: "Eltwise"
  bottom: "res2a"
  bottom: "res2b_branch2b"
  top: "res2b"
  eltwise_param {
    operation: SUM
  }
}
layer {
  name: "res2b_relu"
  type: "ReLU"
  bottom: "res2b"
  top: "res2b"
}
layer {
  name: "res3a_branch1"
  type: "Convolution"
  bottom: "res2b"
  top: "res3a_branch1"
  convolution_param {
    num_output: 64
    bias_term: false
    pad: 0
    kernel_size: 1
    stride: 2
    weight_filler {
      type: "msra"
    }
  }
}
layer {
  name: "bn3a_branch1"
  type: "BatchNorm"
  bottom: "res3a_branch1"
  top: "res3a_branch1"
  batch_norm_param {
    moving_average_fraction: 0.9
  }
}
layer {
  name: "scale3a_branch1"
  type: "Scale"
  bottom: "res3a_branch1"
  top: "res3a_branch1"
  scale_param {
    bias_term: true
  }
}
layer {
  name: "res3a_branch2a"
  type: "Convolution"
  bottom: "res2b"
  top: "res3a_branch2a"
  convolution_param {
    num_output: 64
    bias_term: false
    pad: 1
    kernel_size: 3
    stride: 2
    weight_filler {
      type: "msra"
    }
  }
}
layer {
  name: "bn3a_branch2a"
  type: "BatchNorm"
  bottom: "res3a_branch2a"
  top: "res3a_branch2a"
  batch_norm_param {
    moving_average_fraction: 0.9
  }
}
layer {
  name: "scale3a_branch2a"
  type: "Scale"
  bottom: "res3a_branch2a"
  top: "res3a_branch2a"
  scale_param {
    bias_term: true
  }
}
layer {
  name: "res3a_branch2a_relu"
  type: "ReLU"
  bottom: "res3a_branch2a"
  top: "res3a_branch2a"
}
layer {
  name: "res3a_branch2b"
  type: "Convolution"
  bottom: "res3a_branch2a"
  top: "res3a_branch2b"
  convolution_param {
    num_output: 64
    bias_term: false
    pad: 1
    kernel_size: 3
    stride: 1
    weight_filler {
      type: "msra"
    }
  }
}
layer {
  name: "bn3a_branch2b"
  type: "BatchNorm"
  bottom: "res3a_branch2b"
  top: "res3a_branch2b"
  batch_norm_param {
    moving_average_fraction: 0.9
  }
}
layer {
  name: "scale3a_branch2b"
  type: "Scale"
  bottom: "res3a_branch2b"
  top: "res3a_branch2b"
  scale_param {
    bias_term: true
  }
}
layer {
  name: "res3a"
  type: "Eltwise"
  bottom: "res3a_branch1"
  bottom: "res3a_branch2b"
  top: "res3a"
  eltwise_param {
    operation: SUM
  }
}
layer {
  name: "res3a_relu"
  type: "ReLU"
  bottom: "res3a"
  top: "res3a"
}
layer {
  name: "res3b_branch2a"
  type: "Convolution"
  bottom: "res3a"
  top: "res3b_branch2a"
  convolution_param {
    num_output: 64
    bias_term: false
    pad: 1
    kernel_size: 3
    stride: 1
    weight_filler {
      type: "msra"
    }
  }
}
layer {
  name: "bn3b_branch2a"
  type: "BatchNorm"
  bottom: "res3b_branch2a"
  top: "res3b_branch2a"
  batch_norm_param {
    moving_average_fraction: 0.9
  }
}
layer {
  name: "scale3b_branch2a"
  type: "Scale"
  bottom: "res3b_branch2a"
  top: "res3b_branch2a"
  scale_param {
    bias_term: true
  }
}
layer {
  name: "res3b_branch2a_relu"
  type: "ReLU"
  bottom: "res3b_branch2a"
  top: "res3b_branch2a"
}
layer {
  name: "res3b_branch2b"
  type: "Convolution"
  bottom: "res3b_branch2a"
  top: "res3b_branch2b"
  convolution_param {
    num_output: 64
    bias_term: false
    pad: 1
    kernel_size: 3
    stride: 1
    weight_filler {
      type: "msra"
    }
  }
}
layer {
  name: "bn3b_branch2b"
  type: "BatchNorm"
  bottom: "res3b_branch2b"
  top: "res3b_branch2b"
  batch_norm_param {
    moving_average_fraction: 0.9
  }
}
layer {
  name: "scale3b_branch2b"
  type: "Scale"
  bottom: "res3b_branch2b"
  top: "res3b_branch2b"
  scale_param {
    bias_term: true
  }
}
layer {
  name: "res3b"
  type: "Eltwise"
  bottom: "res3a"
  bottom: "res3b_branch2b"
  top: "res3b"
  eltwise_param {
    operation: SUM
  }
}
layer {
  name: "res3b_relu"
  type: "ReLU"
  bottom: "res3b"
  top: "res3b"
}
layer {
  name: "res4a_branch2a"
  type: "Convolution"
  bottom: "res3b"
  top: "res4a_branch2a"
  convolution_param {
    num_output: 128
    bias_term: false
    pad: 1
    kernel_size: 3
    stride: 2
    weight_filler {
      type: "msra"
    }
  }
}
layer {
  name: "bn4a_branch2a"
  type: "BatchNorm"
  bottom: "res4a_branch2a"
  top: "res4a_branch2a"
  batch_norm_param {
    moving_average_fraction: 0.9
  }
}
layer {
  name: "scale4a_branch2a"
  type: "Scale"
  bottom: "res4a_branch2a"
  top: "res4a_branch2a"
  scale_param {
    bias_term: true
  }
}
layer {
  name: "res4a_branch2a_relu"
  type: "ReLU"
  bottom: "res4a_branch2a"
  top: "res4a_branch2a"
}
layer {
  name: "res4a_branch2b"
  type: "Convolution"
  bottom: "res4a_branch2a"
  top: "res4a_branch2b"
  convolution_param {
    num_output: 3
    bias_term: false
    pad: 1
    kernel_size: 3
    stride: 1
    weight_filler {
      type: "msra"
    }
  }
}
layer {
  name: "bn4a_branch2b"
  type: "BatchNorm"
  bottom: "res4a_branch2b"
  top: "res4a_branch2b"
  batch_norm_param {
    moving_average_fraction: 0.9
  }
}
layer {
  name: "scale4a_branch2b"
  type: "Scale"
  bottom: "res4a_branch2b"
  top: "res4a_branch2b"
  scale_param {
    bias_term: true
  }
}
layer {
  name: "pool5"
  type: "Pooling"
  bottom: "res4a_branch2b"
  top: "pool5"
  pooling_param {
    pool: AVE
    global_pooling: true
  }
}
layer {
  name: "loss"
  type: "SoftmaxWithLoss"
  bottom: "pool5"
  bottom: "label"
  top: "loss"
}
layer {
  name: "acc/top-1"
  type: "Accuracy"
  bottom: "pool5"
  bottom: "label"
  top: "acc/top-1"
  top: "class"
  include {
    phase: TEST
  }
  include {
    phase: TRAIN
  }
}
I0723 00:37:05.521468  2784 layer_factory.hpp:77] Creating layer data
I0723 00:37:05.543418  2784 db_lmdb.cpp:35] Opened lmdb /home/kenny/Desktop/AI-For-CV/week6_9_TinyProj/tiny_caffe_project/data_lmdb/test_lmdb
I0723 00:37:05.543462  2784 net.cpp:86] Creating Layer data
I0723 00:37:05.543481  2784 net.cpp:382] data -> data
I0723 00:37:05.543511  2784 net.cpp:382] data -> label
I0723 00:37:06.186059  2784 data_layer.cpp:45] output data size: 1,3,512,512
I0723 00:37:06.198263  2784 net.cpp:124] Setting up data
I0723 00:37:06.198297  2784 net.cpp:131] Top shape: 1 3 512 512 (786432)
I0723 00:37:06.198307  2784 net.cpp:131] Top shape: 1 (1)
I0723 00:37:06.198314  2784 net.cpp:139] Memory required for data: 3145732
I0723 00:37:06.198341  2784 layer_factory.hpp:77] Creating layer label_data_1_split
I0723 00:37:06.198364  2784 net.cpp:86] Creating Layer label_data_1_split
I0723 00:37:06.198377  2784 net.cpp:408] label_data_1_split <- label
I0723 00:37:06.198403  2784 net.cpp:382] label_data_1_split -> label_data_1_split_0
I0723 00:37:06.198423  2784 net.cpp:382] label_data_1_split -> label_data_1_split_1
I0723 00:37:06.198523  2784 net.cpp:124] Setting up label_data_1_split
I0723 00:37:06.198539  2784 net.cpp:131] Top shape: 1 (1)
I0723 00:37:06.198549  2784 net.cpp:131] Top shape: 1 (1)
I0723 00:37:06.198555  2784 net.cpp:139] Memory required for data: 3145740
I0723 00:37:06.198565  2784 layer_factory.hpp:77] Creating layer conv1
I0723 00:37:06.198592  2784 net.cpp:86] Creating Layer conv1
I0723 00:37:06.198602  2784 net.cpp:408] conv1 <- data
I0723 00:37:06.198616  2784 net.cpp:382] conv1 -> conv1
I0723 00:37:16.871474  2784 net.cpp:124] Setting up conv1
I0723 00:37:16.871516  2784 net.cpp:131] Top shape: 1 32 512 512 (8388608)
I0723 00:37:16.871526  2784 net.cpp:139] Memory required for data: 36700172
I0723 00:37:16.871559  2784 layer_factory.hpp:77] Creating layer bn_conv1
I0723 00:37:16.871592  2784 net.cpp:86] Creating Layer bn_conv1
I0723 00:37:16.871604  2784 net.cpp:408] bn_conv1 <- conv1
I0723 00:37:16.871618  2784 net.cpp:369] bn_conv1 -> conv1 (in-place)
I0723 00:37:16.873145  2784 net.cpp:124] Setting up bn_conv1
I0723 00:37:16.873167  2784 net.cpp:131] Top shape: 1 32 512 512 (8388608)
I0723 00:37:16.873175  2784 net.cpp:139] Memory required for data: 70254604
I0723 00:37:16.873194  2784 layer_factory.hpp:77] Creating layer scale_conv1
I0723 00:37:16.873210  2784 net.cpp:86] Creating Layer scale_conv1
I0723 00:37:16.873219  2784 net.cpp:408] scale_conv1 <- conv1
I0723 00:37:16.873251  2784 net.cpp:369] scale_conv1 -> conv1 (in-place)
I0723 00:37:16.873327  2784 layer_factory.hpp:77] Creating layer scale_conv1
I0723 00:37:16.874915  2784 net.cpp:124] Setting up scale_conv1
I0723 00:37:16.874938  2784 net.cpp:131] Top shape: 1 32 512 512 (8388608)
I0723 00:37:16.874946  2784 net.cpp:139] Memory required for data: 103809036
I0723 00:37:16.874963  2784 layer_factory.hpp:77] Creating layer conv1_relu
I0723 00:37:16.874974  2784 net.cpp:86] Creating Layer conv1_relu
I0723 00:37:16.874982  2784 net.cpp:408] conv1_relu <- conv1
I0723 00:37:16.874992  2784 net.cpp:369] conv1_relu -> conv1 (in-place)
I0723 00:37:16.875641  2784 net.cpp:124] Setting up conv1_relu
I0723 00:37:16.875660  2784 net.cpp:131] Top shape: 1 32 512 512 (8388608)
I0723 00:37:16.875669  2784 net.cpp:139] Memory required for data: 137363468
I0723 00:37:16.875675  2784 layer_factory.hpp:77] Creating layer conv1_conv1_relu_0_split
I0723 00:37:16.875687  2784 net.cpp:86] Creating Layer conv1_conv1_relu_0_split
I0723 00:37:16.875694  2784 net.cpp:408] conv1_conv1_relu_0_split <- conv1
I0723 00:37:16.875705  2784 net.cpp:382] conv1_conv1_relu_0_split -> conv1_conv1_relu_0_split_0
I0723 00:37:16.875722  2784 net.cpp:382] conv1_conv1_relu_0_split -> conv1_conv1_relu_0_split_1
I0723 00:37:16.875782  2784 net.cpp:124] Setting up conv1_conv1_relu_0_split
I0723 00:37:16.875797  2784 net.cpp:131] Top shape: 1 32 512 512 (8388608)
I0723 00:37:16.875805  2784 net.cpp:131] Top shape: 1 32 512 512 (8388608)
I0723 00:37:16.875813  2784 net.cpp:139] Memory required for data: 204472332
I0723 00:37:16.875820  2784 layer_factory.hpp:77] Creating layer res2a_branch1
I0723 00:37:16.875838  2784 net.cpp:86] Creating Layer res2a_branch1
I0723 00:37:16.875847  2784 net.cpp:408] res2a_branch1 <- conv1_conv1_relu_0_split_0
I0723 00:37:16.875859  2784 net.cpp:382] res2a_branch1 -> res2a_branch1
I0723 00:37:16.888654  2784 net.cpp:124] Setting up res2a_branch1
I0723 00:37:16.888679  2784 net.cpp:131] Top shape: 1 32 512 512 (8388608)
I0723 00:37:16.888687  2784 net.cpp:139] Memory required for data: 238026764
I0723 00:37:16.888698  2784 layer_factory.hpp:77] Creating layer bn2a_branch1
I0723 00:37:16.888713  2784 net.cpp:86] Creating Layer bn2a_branch1
I0723 00:37:16.888721  2784 net.cpp:408] bn2a_branch1 <- res2a_branch1
I0723 00:37:16.888732  2784 net.cpp:369] bn2a_branch1 -> res2a_branch1 (in-place)
I0723 00:37:16.889158  2784 net.cpp:124] Setting up bn2a_branch1
I0723 00:37:16.889175  2784 net.cpp:131] Top shape: 1 32 512 512 (8388608)
I0723 00:37:16.889183  2784 net.cpp:139] Memory required for data: 271581196
I0723 00:37:16.889200  2784 layer_factory.hpp:77] Creating layer scale2a_branch1
I0723 00:37:16.889214  2784 net.cpp:86] Creating Layer scale2a_branch1
I0723 00:37:16.889223  2784 net.cpp:408] scale2a_branch1 <- res2a_branch1
I0723 00:37:16.889233  2784 net.cpp:369] scale2a_branch1 -> res2a_branch1 (in-place)
I0723 00:37:16.889293  2784 layer_factory.hpp:77] Creating layer scale2a_branch1
I0723 00:37:16.891430  2784 net.cpp:124] Setting up scale2a_branch1
I0723 00:37:16.891456  2784 net.cpp:131] Top shape: 1 32 512 512 (8388608)
I0723 00:37:16.891465  2784 net.cpp:139] Memory required for data: 305135628
I0723 00:37:16.891479  2784 layer_factory.hpp:77] Creating layer res2a_branch2a
I0723 00:37:16.891494  2784 net.cpp:86] Creating Layer res2a_branch2a
I0723 00:37:16.891503  2784 net.cpp:408] res2a_branch2a <- conv1_conv1_relu_0_split_1
I0723 00:37:16.891520  2784 net.cpp:382] res2a_branch2a -> res2a_branch2a
I0723 00:37:16.895345  2784 net.cpp:124] Setting up res2a_branch2a
I0723 00:37:16.895368  2784 net.cpp:131] Top shape: 1 32 512 512 (8388608)
I0723 00:37:16.895377  2784 net.cpp:139] Memory required for data: 338690060
I0723 00:37:16.895387  2784 layer_factory.hpp:77] Creating layer bn2a_branch2a
I0723 00:37:16.895400  2784 net.cpp:86] Creating Layer bn2a_branch2a
I0723 00:37:16.895407  2784 net.cpp:408] bn2a_branch2a <- res2a_branch2a
I0723 00:37:16.895418  2784 net.cpp:369] bn2a_branch2a -> res2a_branch2a (in-place)
I0723 00:37:16.896953  2784 net.cpp:124] Setting up bn2a_branch2a
I0723 00:37:16.896975  2784 net.cpp:131] Top shape: 1 32 512 512 (8388608)
I0723 00:37:16.896983  2784 net.cpp:139] Memory required for data: 372244492
I0723 00:37:16.896997  2784 layer_factory.hpp:77] Creating layer scale2a_branch2a
I0723 00:37:16.897009  2784 net.cpp:86] Creating Layer scale2a_branch2a
I0723 00:37:16.897017  2784 net.cpp:408] scale2a_branch2a <- res2a_branch2a
I0723 00:37:16.897037  2784 net.cpp:369] scale2a_branch2a -> res2a_branch2a (in-place)
I0723 00:37:16.897100  2784 layer_factory.hpp:77] Creating layer scale2a_branch2a
I0723 00:37:16.898645  2784 net.cpp:124] Setting up scale2a_branch2a
I0723 00:37:16.898666  2784 net.cpp:131] Top shape: 1 32 512 512 (8388608)
I0723 00:37:16.898674  2784 net.cpp:139] Memory required for data: 405798924
I0723 00:37:16.898691  2784 layer_factory.hpp:77] Creating layer res2a_branch2a_relu
I0723 00:37:16.898703  2784 net.cpp:86] Creating Layer res2a_branch2a_relu
I0723 00:37:16.898711  2784 net.cpp:408] res2a_branch2a_relu <- res2a_branch2a
I0723 00:37:16.898722  2784 net.cpp:369] res2a_branch2a_relu -> res2a_branch2a (in-place)
I0723 00:37:16.899365  2784 net.cpp:124] Setting up res2a_branch2a_relu
I0723 00:37:16.899385  2784 net.cpp:131] Top shape: 1 32 512 512 (8388608)
I0723 00:37:16.899392  2784 net.cpp:139] Memory required for data: 439353356
I0723 00:37:16.899400  2784 layer_factory.hpp:77] Creating layer res2a_branch2b
I0723 00:37:16.899415  2784 net.cpp:86] Creating Layer res2a_branch2b
I0723 00:37:16.899423  2784 net.cpp:408] res2a_branch2b <- res2a_branch2a
I0723 00:37:16.899435  2784 net.cpp:382] res2a_branch2b -> res2a_branch2b
I0723 00:37:16.902602  2784 net.cpp:124] Setting up res2a_branch2b
I0723 00:37:16.902626  2784 net.cpp:131] Top shape: 1 32 512 512 (8388608)
I0723 00:37:16.902633  2784 net.cpp:139] Memory required for data: 472907788
I0723 00:37:16.902644  2784 layer_factory.hpp:77] Creating layer bn2a_branch2b
I0723 00:37:16.902657  2784 net.cpp:86] Creating Layer bn2a_branch2b
I0723 00:37:16.902664  2784 net.cpp:408] bn2a_branch2b <- res2a_branch2b
I0723 00:37:16.902674  2784 net.cpp:369] bn2a_branch2b -> res2a_branch2b (in-place)
I0723 00:37:16.903095  2784 net.cpp:124] Setting up bn2a_branch2b
I0723 00:37:16.903111  2784 net.cpp:131] Top shape: 1 32 512 512 (8388608)
I0723 00:37:16.903118  2784 net.cpp:139] Memory required for data: 506462220
I0723 00:37:16.903132  2784 layer_factory.hpp:77] Creating layer scale2a_branch2b
I0723 00:37:16.903147  2784 net.cpp:86] Creating Layer scale2a_branch2b
I0723 00:37:16.903156  2784 net.cpp:408] scale2a_branch2b <- res2a_branch2b
I0723 00:37:16.903165  2784 net.cpp:369] scale2a_branch2b -> res2a_branch2b (in-place)
I0723 00:37:16.903226  2784 layer_factory.hpp:77] Creating layer scale2a_branch2b
I0723 00:37:16.904789  2784 net.cpp:124] Setting up scale2a_branch2b
I0723 00:37:16.904812  2784 net.cpp:131] Top shape: 1 32 512 512 (8388608)
I0723 00:37:16.904821  2784 net.cpp:139] Memory required for data: 540016652
I0723 00:37:16.904834  2784 layer_factory.hpp:77] Creating layer res2a
I0723 00:37:16.904848  2784 net.cpp:86] Creating Layer res2a
I0723 00:37:16.904858  2784 net.cpp:408] res2a <- res2a_branch1
I0723 00:37:16.904868  2784 net.cpp:408] res2a <- res2a_branch2b
I0723 00:37:16.904881  2784 net.cpp:382] res2a -> res2a
I0723 00:37:16.904932  2784 net.cpp:124] Setting up res2a
I0723 00:37:16.904947  2784 net.cpp:131] Top shape: 1 32 512 512 (8388608)
I0723 00:37:16.904956  2784 net.cpp:139] Memory required for data: 573571084
I0723 00:37:16.904963  2784 layer_factory.hpp:77] Creating layer res2a_relu
I0723 00:37:16.904973  2784 net.cpp:86] Creating Layer res2a_relu
I0723 00:37:16.904983  2784 net.cpp:408] res2a_relu <- res2a
I0723 00:37:16.904992  2784 net.cpp:369] res2a_relu -> res2a (in-place)
I0723 00:37:16.905632  2784 net.cpp:124] Setting up res2a_relu
I0723 00:37:16.905652  2784 net.cpp:131] Top shape: 1 32 512 512 (8388608)
I0723 00:37:16.905660  2784 net.cpp:139] Memory required for data: 607125516
I0723 00:37:16.905668  2784 layer_factory.hpp:77] Creating layer res2a_res2a_relu_0_split
I0723 00:37:16.905696  2784 net.cpp:86] Creating Layer res2a_res2a_relu_0_split
I0723 00:37:16.905706  2784 net.cpp:408] res2a_res2a_relu_0_split <- res2a
I0723 00:37:16.905716  2784 net.cpp:382] res2a_res2a_relu_0_split -> res2a_res2a_relu_0_split_0
I0723 00:37:16.905731  2784 net.cpp:382] res2a_res2a_relu_0_split -> res2a_res2a_relu_0_split_1
I0723 00:37:16.905794  2784 net.cpp:124] Setting up res2a_res2a_relu_0_split
I0723 00:37:16.905809  2784 net.cpp:131] Top shape: 1 32 512 512 (8388608)
I0723 00:37:16.905820  2784 net.cpp:131] Top shape: 1 32 512 512 (8388608)
I0723 00:37:16.905827  2784 net.cpp:139] Memory required for data: 674234380
I0723 00:37:16.905835  2784 layer_factory.hpp:77] Creating layer res2b_branch2a
I0723 00:37:16.905850  2784 net.cpp:86] Creating Layer res2b_branch2a
I0723 00:37:16.905859  2784 net.cpp:408] res2b_branch2a <- res2a_res2a_relu_0_split_0
I0723 00:37:16.905870  2784 net.cpp:382] res2b_branch2a -> res2b_branch2a
I0723 00:37:16.909096  2784 net.cpp:124] Setting up res2b_branch2a
I0723 00:37:16.909122  2784 net.cpp:131] Top shape: 1 32 512 512 (8388608)
I0723 00:37:16.909132  2784 net.cpp:139] Memory required for data: 707788812
I0723 00:37:16.909144  2784 layer_factory.hpp:77] Creating layer bn2b_branch2a
I0723 00:37:16.909158  2784 net.cpp:86] Creating Layer bn2b_branch2a
I0723 00:37:16.909168  2784 net.cpp:408] bn2b_branch2a <- res2b_branch2a
I0723 00:37:16.909178  2784 net.cpp:369] bn2b_branch2a -> res2b_branch2a (in-place)
I0723 00:37:16.910717  2784 net.cpp:124] Setting up bn2b_branch2a
I0723 00:37:16.910739  2784 net.cpp:131] Top shape: 1 32 512 512 (8388608)
I0723 00:37:16.910749  2784 net.cpp:139] Memory required for data: 741343244
I0723 00:37:16.910764  2784 layer_factory.hpp:77] Creating layer scale2b_branch2a
I0723 00:37:16.910778  2784 net.cpp:86] Creating Layer scale2b_branch2a
I0723 00:37:16.910787  2784 net.cpp:408] scale2b_branch2a <- res2b_branch2a
I0723 00:37:16.910799  2784 net.cpp:369] scale2b_branch2a -> res2b_branch2a (in-place)
I0723 00:37:16.910863  2784 layer_factory.hpp:77] Creating layer scale2b_branch2a
I0723 00:37:16.912418  2784 net.cpp:124] Setting up scale2b_branch2a
I0723 00:37:16.912439  2784 net.cpp:131] Top shape: 1 32 512 512 (8388608)
I0723 00:37:16.912448  2784 net.cpp:139] Memory required for data: 774897676
I0723 00:37:16.912461  2784 layer_factory.hpp:77] Creating layer res2b_branch2a_relu
I0723 00:37:16.912474  2784 net.cpp:86] Creating Layer res2b_branch2a_relu
I0723 00:37:16.912483  2784 net.cpp:408] res2b_branch2a_relu <- res2b_branch2a
I0723 00:37:16.912494  2784 net.cpp:369] res2b_branch2a_relu -> res2b_branch2a (in-place)
I0723 00:37:16.913563  2784 net.cpp:124] Setting up res2b_branch2a_relu
I0723 00:37:16.913583  2784 net.cpp:131] Top shape: 1 32 512 512 (8388608)
I0723 00:37:16.913592  2784 net.cpp:139] Memory required for data: 808452108
I0723 00:37:16.913600  2784 layer_factory.hpp:77] Creating layer res2b_branch2b
I0723 00:37:16.913617  2784 net.cpp:86] Creating Layer res2b_branch2b
I0723 00:37:16.913627  2784 net.cpp:408] res2b_branch2b <- res2b_branch2a
I0723 00:37:16.913638  2784 net.cpp:382] res2b_branch2b -> res2b_branch2b
I0723 00:37:16.916592  2784 net.cpp:124] Setting up res2b_branch2b
I0723 00:37:16.916617  2784 net.cpp:131] Top shape: 1 32 512 512 (8388608)
I0723 00:37:16.916626  2784 net.cpp:139] Memory required for data: 842006540
I0723 00:37:16.916638  2784 layer_factory.hpp:77] Creating layer bn2b_branch2b
I0723 00:37:16.916651  2784 net.cpp:86] Creating Layer bn2b_branch2b
I0723 00:37:16.916661  2784 net.cpp:408] bn2b_branch2b <- res2b_branch2b
I0723 00:37:16.916674  2784 net.cpp:369] bn2b_branch2b -> res2b_branch2b (in-place)
I0723 00:37:16.917119  2784 net.cpp:124] Setting up bn2b_branch2b
I0723 00:37:16.917136  2784 net.cpp:131] Top shape: 1 32 512 512 (8388608)
I0723 00:37:16.917143  2784 net.cpp:139] Memory required for data: 875560972
I0723 00:37:16.917167  2784 layer_factory.hpp:77] Creating layer scale2b_branch2b
I0723 00:37:16.917181  2784 net.cpp:86] Creating Layer scale2b_branch2b
I0723 00:37:16.917207  2784 net.cpp:408] scale2b_branch2b <- res2b_branch2b
I0723 00:37:16.917222  2784 net.cpp:369] scale2b_branch2b -> res2b_branch2b (in-place)
I0723 00:37:16.917290  2784 layer_factory.hpp:77] Creating layer scale2b_branch2b
I0723 00:37:16.918890  2784 net.cpp:124] Setting up scale2b_branch2b
I0723 00:37:16.918913  2784 net.cpp:131] Top shape: 1 32 512 512 (8388608)
I0723 00:37:16.918923  2784 net.cpp:139] Memory required for data: 909115404
I0723 00:37:16.918936  2784 layer_factory.hpp:77] Creating layer res2b
I0723 00:37:16.918949  2784 net.cpp:86] Creating Layer res2b
I0723 00:37:16.918958  2784 net.cpp:408] res2b <- res2a_res2a_relu_0_split_1
I0723 00:37:16.918968  2784 net.cpp:408] res2b <- res2b_branch2b
I0723 00:37:16.918980  2784 net.cpp:382] res2b -> res2b
I0723 00:37:16.919026  2784 net.cpp:124] Setting up res2b
I0723 00:37:16.919041  2784 net.cpp:131] Top shape: 1 32 512 512 (8388608)
I0723 00:37:16.919049  2784 net.cpp:139] Memory required for data: 942669836
I0723 00:37:16.919056  2784 layer_factory.hpp:77] Creating layer res2b_relu
I0723 00:37:16.919072  2784 net.cpp:86] Creating Layer res2b_relu
I0723 00:37:16.919081  2784 net.cpp:408] res2b_relu <- res2b
I0723 00:37:16.919091  2784 net.cpp:369] res2b_relu -> res2b (in-place)
I0723 00:37:16.920255  2784 net.cpp:124] Setting up res2b_relu
I0723 00:37:16.920279  2784 net.cpp:131] Top shape: 1 32 512 512 (8388608)
I0723 00:37:16.920289  2784 net.cpp:139] Memory required for data: 976224268
I0723 00:37:16.920296  2784 layer_factory.hpp:77] Creating layer res2b_res2b_relu_0_split
I0723 00:37:16.920308  2784 net.cpp:86] Creating Layer res2b_res2b_relu_0_split
I0723 00:37:16.920317  2784 net.cpp:408] res2b_res2b_relu_0_split <- res2b
I0723 00:37:16.920327  2784 net.cpp:382] res2b_res2b_relu_0_split -> res2b_res2b_relu_0_split_0
I0723 00:37:16.920349  2784 net.cpp:382] res2b_res2b_relu_0_split -> res2b_res2b_relu_0_split_1
I0723 00:37:16.920419  2784 net.cpp:124] Setting up res2b_res2b_relu_0_split
I0723 00:37:16.920436  2784 net.cpp:131] Top shape: 1 32 512 512 (8388608)
I0723 00:37:16.920446  2784 net.cpp:131] Top shape: 1 32 512 512 (8388608)
I0723 00:37:16.920454  2784 net.cpp:139] Memory required for data: 1043333132
I0723 00:37:16.920462  2784 layer_factory.hpp:77] Creating layer res3a_branch1
I0723 00:37:16.920480  2784 net.cpp:86] Creating Layer res3a_branch1
I0723 00:37:16.920488  2784 net.cpp:408] res3a_branch1 <- res2b_res2b_relu_0_split_0
I0723 00:37:16.920500  2784 net.cpp:382] res3a_branch1 -> res3a_branch1
I0723 00:37:16.924582  2784 net.cpp:124] Setting up res3a_branch1
I0723 00:37:16.924607  2784 net.cpp:131] Top shape: 1 64 256 256 (4194304)
I0723 00:37:16.924615  2784 net.cpp:139] Memory required for data: 1060110348
I0723 00:37:16.924625  2784 layer_factory.hpp:77] Creating layer bn3a_branch1
I0723 00:37:16.924638  2784 net.cpp:86] Creating Layer bn3a_branch1
I0723 00:37:16.924648  2784 net.cpp:408] bn3a_branch1 <- res3a_branch1
I0723 00:37:16.924661  2784 net.cpp:369] bn3a_branch1 -> res3a_branch1 (in-place)
I0723 00:37:16.926051  2784 net.cpp:124] Setting up bn3a_branch1
I0723 00:37:16.926072  2784 net.cpp:131] Top shape: 1 64 256 256 (4194304)
I0723 00:37:16.926081  2784 net.cpp:139] Memory required for data: 1076887564
I0723 00:37:16.926095  2784 layer_factory.hpp:77] Creating layer scale3a_branch1
I0723 00:37:16.926117  2784 net.cpp:86] Creating Layer scale3a_branch1
I0723 00:37:16.926127  2784 net.cpp:408] scale3a_branch1 <- res3a_branch1
I0723 00:37:16.926139  2784 net.cpp:369] scale3a_branch1 -> res3a_branch1 (in-place)
I0723 00:37:16.926209  2784 layer_factory.hpp:77] Creating layer scale3a_branch1
I0723 00:37:16.926491  2784 net.cpp:124] Setting up scale3a_branch1
I0723 00:37:16.926512  2784 net.cpp:131] Top shape: 1 64 256 256 (4194304)
I0723 00:37:16.926520  2784 net.cpp:139] Memory required for data: 1093664780
I0723 00:37:16.926532  2784 layer_factory.hpp:77] Creating layer res3a_branch2a
I0723 00:37:16.926548  2784 net.cpp:86] Creating Layer res3a_branch2a
I0723 00:37:16.926573  2784 net.cpp:408] res3a_branch2a <- res2b_res2b_relu_0_split_1
I0723 00:37:16.926589  2784 net.cpp:382] res3a_branch2a -> res3a_branch2a
I0723 00:37:16.930259  2784 net.cpp:124] Setting up res3a_branch2a
I0723 00:37:16.930282  2784 net.cpp:131] Top shape: 1 64 256 256 (4194304)
I0723 00:37:16.930290  2784 net.cpp:139] Memory required for data: 1110441996
I0723 00:37:16.930305  2784 layer_factory.hpp:77] Creating layer bn3a_branch2a
I0723 00:37:16.930330  2784 net.cpp:86] Creating Layer bn3a_branch2a
I0723 00:37:16.930341  2784 net.cpp:408] bn3a_branch2a <- res3a_branch2a
I0723 00:37:16.930352  2784 net.cpp:369] bn3a_branch2a -> res3a_branch2a (in-place)
I0723 00:37:16.930682  2784 net.cpp:124] Setting up bn3a_branch2a
I0723 00:37:16.930699  2784 net.cpp:131] Top shape: 1 64 256 256 (4194304)
I0723 00:37:16.930706  2784 net.cpp:139] Memory required for data: 1127219212
I0723 00:37:16.930719  2784 layer_factory.hpp:77] Creating layer scale3a_branch2a
I0723 00:37:16.930733  2784 net.cpp:86] Creating Layer scale3a_branch2a
I0723 00:37:16.930742  2784 net.cpp:408] scale3a_branch2a <- res3a_branch2a
I0723 00:37:16.930752  2784 net.cpp:369] scale3a_branch2a -> res3a_branch2a (in-place)
I0723 00:37:16.930819  2784 layer_factory.hpp:77] Creating layer scale3a_branch2a
I0723 00:37:16.931071  2784 net.cpp:124] Setting up scale3a_branch2a
I0723 00:37:16.931089  2784 net.cpp:131] Top shape: 1 64 256 256 (4194304)
I0723 00:37:16.931097  2784 net.cpp:139] Memory required for data: 1143996428
I0723 00:37:16.931107  2784 layer_factory.hpp:77] Creating layer res3a_branch2a_relu
I0723 00:37:16.931119  2784 net.cpp:86] Creating Layer res3a_branch2a_relu
I0723 00:37:16.931126  2784 net.cpp:408] res3a_branch2a_relu <- res3a_branch2a
I0723 00:37:16.931139  2784 net.cpp:369] res3a_branch2a_relu -> res3a_branch2a (in-place)
I0723 00:37:16.932334  2784 net.cpp:124] Setting up res3a_branch2a_relu
I0723 00:37:16.932358  2784 net.cpp:131] Top shape: 1 64 256 256 (4194304)
I0723 00:37:16.932366  2784 net.cpp:139] Memory required for data: 1160773644
I0723 00:37:16.932374  2784 layer_factory.hpp:77] Creating layer res3a_branch2b
I0723 00:37:16.932390  2784 net.cpp:86] Creating Layer res3a_branch2b
I0723 00:37:16.932399  2784 net.cpp:408] res3a_branch2b <- res3a_branch2a
I0723 00:37:16.932411  2784 net.cpp:382] res3a_branch2b -> res3a_branch2b
I0723 00:37:16.936270  2784 net.cpp:124] Setting up res3a_branch2b
I0723 00:37:16.936293  2784 net.cpp:131] Top shape: 1 64 256 256 (4194304)
I0723 00:37:16.936301  2784 net.cpp:139] Memory required for data: 1177550860
I0723 00:37:16.936311  2784 layer_factory.hpp:77] Creating layer bn3a_branch2b
I0723 00:37:16.936326  2784 net.cpp:86] Creating Layer bn3a_branch2b
I0723 00:37:16.936334  2784 net.cpp:408] bn3a_branch2b <- res3a_branch2b
I0723 00:37:16.936344  2784 net.cpp:369] bn3a_branch2b -> res3a_branch2b (in-place)
I0723 00:37:16.936676  2784 net.cpp:124] Setting up bn3a_branch2b
I0723 00:37:16.936692  2784 net.cpp:131] Top shape: 1 64 256 256 (4194304)
I0723 00:37:16.936699  2784 net.cpp:139] Memory required for data: 1194328076
I0723 00:37:16.936713  2784 layer_factory.hpp:77] Creating layer scale3a_branch2b
I0723 00:37:16.936725  2784 net.cpp:86] Creating Layer scale3a_branch2b
I0723 00:37:16.936733  2784 net.cpp:408] scale3a_branch2b <- res3a_branch2b
I0723 00:37:16.936745  2784 net.cpp:369] scale3a_branch2b -> res3a_branch2b (in-place)
I0723 00:37:16.936812  2784 layer_factory.hpp:77] Creating layer scale3a_branch2b
I0723 00:37:16.938135  2784 net.cpp:124] Setting up scale3a_branch2b
I0723 00:37:16.938158  2784 net.cpp:131] Top shape: 1 64 256 256 (4194304)
I0723 00:37:16.938164  2784 net.cpp:139] Memory required for data: 1211105292
I0723 00:37:16.938176  2784 layer_factory.hpp:77] Creating layer res3a
I0723 00:37:16.938191  2784 net.cpp:86] Creating Layer res3a
I0723 00:37:16.938199  2784 net.cpp:408] res3a <- res3a_branch1
I0723 00:37:16.938212  2784 net.cpp:408] res3a <- res3a_branch2b
I0723 00:37:16.938223  2784 net.cpp:382] res3a -> res3a
I0723 00:37:16.938273  2784 net.cpp:124] Setting up res3a
I0723 00:37:16.938305  2784 net.cpp:131] Top shape: 1 64 256 256 (4194304)
I0723 00:37:16.938314  2784 net.cpp:139] Memory required for data: 1227882508
I0723 00:37:16.938333  2784 layer_factory.hpp:77] Creating layer res3a_relu
I0723 00:37:16.938344  2784 net.cpp:86] Creating Layer res3a_relu
I0723 00:37:16.938354  2784 net.cpp:408] res3a_relu <- res3a
I0723 00:37:16.938366  2784 net.cpp:369] res3a_relu -> res3a (in-place)
I0723 00:37:16.939116  2784 net.cpp:124] Setting up res3a_relu
I0723 00:37:16.939137  2784 net.cpp:131] Top shape: 1 64 256 256 (4194304)
I0723 00:37:16.939146  2784 net.cpp:139] Memory required for data: 1244659724
I0723 00:37:16.939154  2784 layer_factory.hpp:77] Creating layer res3a_res3a_relu_0_split
I0723 00:37:16.939167  2784 net.cpp:86] Creating Layer res3a_res3a_relu_0_split
I0723 00:37:16.939175  2784 net.cpp:408] res3a_res3a_relu_0_split <- res3a
I0723 00:37:16.939186  2784 net.cpp:382] res3a_res3a_relu_0_split -> res3a_res3a_relu_0_split_0
I0723 00:37:16.939200  2784 net.cpp:382] res3a_res3a_relu_0_split -> res3a_res3a_relu_0_split_1
I0723 00:37:16.939266  2784 net.cpp:124] Setting up res3a_res3a_relu_0_split
I0723 00:37:16.939282  2784 net.cpp:131] Top shape: 1 64 256 256 (4194304)
I0723 00:37:16.939293  2784 net.cpp:131] Top shape: 1 64 256 256 (4194304)
I0723 00:37:16.939301  2784 net.cpp:139] Memory required for data: 1278214156
I0723 00:37:16.939309  2784 layer_factory.hpp:77] Creating layer res3b_branch2a
I0723 00:37:16.939323  2784 net.cpp:86] Creating Layer res3b_branch2a
I0723 00:37:16.939333  2784 net.cpp:408] res3b_branch2a <- res3a_res3a_relu_0_split_0
I0723 00:37:16.939348  2784 net.cpp:382] res3b_branch2a -> res3b_branch2a
I0723 00:37:16.943717  2784 net.cpp:124] Setting up res3b_branch2a
I0723 00:37:16.943743  2784 net.cpp:131] Top shape: 1 64 256 256 (4194304)
I0723 00:37:16.943754  2784 net.cpp:139] Memory required for data: 1294991372
I0723 00:37:16.943765  2784 layer_factory.hpp:77] Creating layer bn3b_branch2a
I0723 00:37:16.943778  2784 net.cpp:86] Creating Layer bn3b_branch2a
I0723 00:37:16.943789  2784 net.cpp:408] bn3b_branch2a <- res3b_branch2a
I0723 00:37:16.943801  2784 net.cpp:369] bn3b_branch2a -> res3b_branch2a (in-place)
I0723 00:37:16.944135  2784 net.cpp:124] Setting up bn3b_branch2a
I0723 00:37:16.944155  2784 net.cpp:131] Top shape: 1 64 256 256 (4194304)
I0723 00:37:16.944164  2784 net.cpp:139] Memory required for data: 1311768588
I0723 00:37:16.944178  2784 layer_factory.hpp:77] Creating layer scale3b_branch2a
I0723 00:37:16.944190  2784 net.cpp:86] Creating Layer scale3b_branch2a
I0723 00:37:16.944200  2784 net.cpp:408] scale3b_branch2a <- res3b_branch2a
I0723 00:37:16.944211  2784 net.cpp:369] scale3b_branch2a -> res3b_branch2a (in-place)
I0723 00:37:16.944278  2784 layer_factory.hpp:77] Creating layer scale3b_branch2a
I0723 00:37:16.944541  2784 net.cpp:124] Setting up scale3b_branch2a
I0723 00:37:16.944559  2784 net.cpp:131] Top shape: 1 64 256 256 (4194304)
I0723 00:37:16.944568  2784 net.cpp:139] Memory required for data: 1328545804
I0723 00:37:16.944579  2784 layer_factory.hpp:77] Creating layer res3b_branch2a_relu
I0723 00:37:16.944594  2784 net.cpp:86] Creating Layer res3b_branch2a_relu
I0723 00:37:16.944603  2784 net.cpp:408] res3b_branch2a_relu <- res3b_branch2a
I0723 00:37:16.944614  2784 net.cpp:369] res3b_branch2a_relu -> res3b_branch2a (in-place)
I0723 00:37:16.945353  2784 net.cpp:124] Setting up res3b_branch2a_relu
I0723 00:37:16.945374  2784 net.cpp:131] Top shape: 1 64 256 256 (4194304)
I0723 00:37:16.945384  2784 net.cpp:139] Memory required for data: 1345323020
I0723 00:37:16.945391  2784 layer_factory.hpp:77] Creating layer res3b_branch2b
I0723 00:37:16.945410  2784 net.cpp:86] Creating Layer res3b_branch2b
I0723 00:37:16.945420  2784 net.cpp:408] res3b_branch2b <- res3b_branch2a
I0723 00:37:16.945430  2784 net.cpp:382] res3b_branch2b -> res3b_branch2b
I0723 00:37:16.949347  2784 net.cpp:124] Setting up res3b_branch2b
I0723 00:37:16.949370  2784 net.cpp:131] Top shape: 1 64 256 256 (4194304)
I0723 00:37:16.949383  2784 net.cpp:139] Memory required for data: 1362100236
I0723 00:37:16.949409  2784 layer_factory.hpp:77] Creating layer bn3b_branch2b
I0723 00:37:16.949424  2784 net.cpp:86] Creating Layer bn3b_branch2b
I0723 00:37:16.949434  2784 net.cpp:408] bn3b_branch2b <- res3b_branch2b
I0723 00:37:16.949445  2784 net.cpp:369] bn3b_branch2b -> res3b_branch2b (in-place)
I0723 00:37:16.949782  2784 net.cpp:124] Setting up bn3b_branch2b
I0723 00:37:16.949800  2784 net.cpp:131] Top shape: 1 64 256 256 (4194304)
I0723 00:37:16.949807  2784 net.cpp:139] Memory required for data: 1378877452
I0723 00:37:16.949821  2784 layer_factory.hpp:77] Creating layer scale3b_branch2b
I0723 00:37:16.949834  2784 net.cpp:86] Creating Layer scale3b_branch2b
I0723 00:37:16.949843  2784 net.cpp:408] scale3b_branch2b <- res3b_branch2b
I0723 00:37:16.949857  2784 net.cpp:369] scale3b_branch2b -> res3b_branch2b (in-place)
I0723 00:37:16.949925  2784 layer_factory.hpp:77] Creating layer scale3b_branch2b
I0723 00:37:16.951277  2784 net.cpp:124] Setting up scale3b_branch2b
I0723 00:37:16.951298  2784 net.cpp:131] Top shape: 1 64 256 256 (4194304)
I0723 00:37:16.951308  2784 net.cpp:139] Memory required for data: 1395654668
I0723 00:37:16.951333  2784 layer_factory.hpp:77] Creating layer res3b
I0723 00:37:16.951349  2784 net.cpp:86] Creating Layer res3b
I0723 00:37:16.951359  2784 net.cpp:408] res3b <- res3a_res3a_relu_0_split_1
I0723 00:37:16.951369  2784 net.cpp:408] res3b <- res3b_branch2b
I0723 00:37:16.951380  2784 net.cpp:382] res3b -> res3b
I0723 00:37:16.951431  2784 net.cpp:124] Setting up res3b
I0723 00:37:16.951448  2784 net.cpp:131] Top shape: 1 64 256 256 (4194304)
I0723 00:37:16.951455  2784 net.cpp:139] Memory required for data: 1412431884
I0723 00:37:16.951463  2784 layer_factory.hpp:77] Creating layer res3b_relu
I0723 00:37:16.951474  2784 net.cpp:86] Creating Layer res3b_relu
I0723 00:37:16.951483  2784 net.cpp:408] res3b_relu <- res3b
I0723 00:37:16.951493  2784 net.cpp:369] res3b_relu -> res3b (in-place)
I0723 00:37:16.952718  2784 net.cpp:124] Setting up res3b_relu
I0723 00:37:16.952740  2784 net.cpp:131] Top shape: 1 64 256 256 (4194304)
I0723 00:37:16.952749  2784 net.cpp:139] Memory required for data: 1429209100
I0723 00:37:16.952757  2784 layer_factory.hpp:77] Creating layer res4a_branch2a
I0723 00:37:16.952775  2784 net.cpp:86] Creating Layer res4a_branch2a
I0723 00:37:16.952785  2784 net.cpp:408] res4a_branch2a <- res3b
I0723 00:37:16.952798  2784 net.cpp:382] res4a_branch2a -> res4a_branch2a
I0723 00:37:16.957906  2784 net.cpp:124] Setting up res4a_branch2a
I0723 00:37:16.957928  2784 net.cpp:131] Top shape: 1 128 128 128 (2097152)
I0723 00:37:16.957937  2784 net.cpp:139] Memory required for data: 1437597708
I0723 00:37:16.957948  2784 layer_factory.hpp:77] Creating layer bn4a_branch2a
I0723 00:37:16.957962  2784 net.cpp:86] Creating Layer bn4a_branch2a
I0723 00:37:16.957974  2784 net.cpp:408] bn4a_branch2a <- res4a_branch2a
I0723 00:37:16.957985  2784 net.cpp:369] bn4a_branch2a -> res4a_branch2a (in-place)
I0723 00:37:16.958289  2784 net.cpp:124] Setting up bn4a_branch2a
I0723 00:37:16.958307  2784 net.cpp:131] Top shape: 1 128 128 128 (2097152)
I0723 00:37:16.958315  2784 net.cpp:139] Memory required for data: 1445986316
I0723 00:37:16.958345  2784 layer_factory.hpp:77] Creating layer scale4a_branch2a
I0723 00:37:16.958362  2784 net.cpp:86] Creating Layer scale4a_branch2a
I0723 00:37:16.958372  2784 net.cpp:408] scale4a_branch2a <- res4a_branch2a
I0723 00:37:16.958382  2784 net.cpp:369] scale4a_branch2a -> res4a_branch2a (in-place)
I0723 00:37:16.958451  2784 layer_factory.hpp:77] Creating layer scale4a_branch2a
I0723 00:37:16.958658  2784 net.cpp:124] Setting up scale4a_branch2a
I0723 00:37:16.958719  2784 net.cpp:131] Top shape: 1 128 128 128 (2097152)
I0723 00:37:16.958727  2784 net.cpp:139] Memory required for data: 1454374924
I0723 00:37:16.958740  2784 layer_factory.hpp:77] Creating layer res4a_branch2a_relu
I0723 00:37:16.958753  2784 net.cpp:86] Creating Layer res4a_branch2a_relu
I0723 00:37:16.958763  2784 net.cpp:408] res4a_branch2a_relu <- res4a_branch2a
I0723 00:37:16.958794  2784 net.cpp:369] res4a_branch2a_relu -> res4a_branch2a (in-place)
I0723 00:37:16.959529  2784 net.cpp:124] Setting up res4a_branch2a_relu
I0723 00:37:16.959549  2784 net.cpp:131] Top shape: 1 128 128 128 (2097152)
I0723 00:37:16.959558  2784 net.cpp:139] Memory required for data: 1462763532
I0723 00:37:16.959564  2784 layer_factory.hpp:77] Creating layer res4a_branch2b
I0723 00:37:16.959581  2784 net.cpp:86] Creating Layer res4a_branch2b
I0723 00:37:16.959591  2784 net.cpp:408] res4a_branch2b <- res4a_branch2a
I0723 00:37:16.959605  2784 net.cpp:382] res4a_branch2b -> res4a_branch2b
I0723 00:37:16.963207  2784 net.cpp:124] Setting up res4a_branch2b
I0723 00:37:16.963230  2784 net.cpp:131] Top shape: 1 3 128 128 (49152)
I0723 00:37:16.963238  2784 net.cpp:139] Memory required for data: 1462960140
I0723 00:37:16.963248  2784 layer_factory.hpp:77] Creating layer bn4a_branch2b
I0723 00:37:16.963266  2784 net.cpp:86] Creating Layer bn4a_branch2b
I0723 00:37:16.963277  2784 net.cpp:408] bn4a_branch2b <- res4a_branch2b
I0723 00:37:16.963289  2784 net.cpp:369] bn4a_branch2b -> res4a_branch2b (in-place)
I0723 00:37:16.963604  2784 net.cpp:124] Setting up bn4a_branch2b
I0723 00:37:16.963620  2784 net.cpp:131] Top shape: 1 3 128 128 (49152)
I0723 00:37:16.963629  2784 net.cpp:139] Memory required for data: 1463156748
I0723 00:37:16.963642  2784 layer_factory.hpp:77] Creating layer scale4a_branch2b
I0723 00:37:16.963657  2784 net.cpp:86] Creating Layer scale4a_branch2b
I0723 00:37:16.963667  2784 net.cpp:408] scale4a_branch2b <- res4a_branch2b
I0723 00:37:16.963676  2784 net.cpp:369] scale4a_branch2b -> res4a_branch2b (in-place)
I0723 00:37:16.963743  2784 layer_factory.hpp:77] Creating layer scale4a_branch2b
I0723 00:37:16.963963  2784 net.cpp:124] Setting up scale4a_branch2b
I0723 00:37:16.963980  2784 net.cpp:131] Top shape: 1 3 128 128 (49152)
I0723 00:37:16.963989  2784 net.cpp:139] Memory required for data: 1463353356
I0723 00:37:16.963999  2784 layer_factory.hpp:77] Creating layer pool5
I0723 00:37:16.964015  2784 net.cpp:86] Creating Layer pool5
I0723 00:37:16.964025  2784 net.cpp:408] pool5 <- res4a_branch2b
I0723 00:37:16.964036  2784 net.cpp:382] pool5 -> pool5
I0723 00:37:16.964927  2784 net.cpp:124] Setting up pool5
I0723 00:37:16.964948  2784 net.cpp:131] Top shape: 1 3 1 1 (3)
I0723 00:37:16.964956  2784 net.cpp:139] Memory required for data: 1463353368
I0723 00:37:16.964964  2784 layer_factory.hpp:77] Creating layer pool5_pool5_0_split
I0723 00:37:16.965000  2784 net.cpp:86] Creating Layer pool5_pool5_0_split
I0723 00:37:16.965013  2784 net.cpp:408] pool5_pool5_0_split <- pool5
I0723 00:37:16.965026  2784 net.cpp:382] pool5_pool5_0_split -> pool5_pool5_0_split_0
I0723 00:37:16.965042  2784 net.cpp:382] pool5_pool5_0_split -> pool5_pool5_0_split_1
I0723 00:37:16.965112  2784 net.cpp:124] Setting up pool5_pool5_0_split
I0723 00:37:16.965128  2784 net.cpp:131] Top shape: 1 3 1 1 (3)
I0723 00:37:16.965137  2784 net.cpp:131] Top shape: 1 3 1 1 (3)
I0723 00:37:16.965144  2784 net.cpp:139] Memory required for data: 1463353392
I0723 00:37:16.965152  2784 layer_factory.hpp:77] Creating layer loss
I0723 00:37:16.965170  2784 net.cpp:86] Creating Layer loss
I0723 00:37:16.965180  2784 net.cpp:408] loss <- pool5_pool5_0_split_0
I0723 00:37:16.965190  2784 net.cpp:408] loss <- label_data_1_split_0
I0723 00:37:16.965205  2784 net.cpp:382] loss -> loss
I0723 00:37:16.965232  2784 layer_factory.hpp:77] Creating layer loss
I0723 00:37:16.966095  2784 net.cpp:124] Setting up loss
I0723 00:37:16.966114  2784 net.cpp:131] Top shape: (1)
I0723 00:37:16.966121  2784 net.cpp:134]     with loss weight 1
I0723 00:37:16.966147  2784 net.cpp:139] Memory required for data: 1463353396
I0723 00:37:16.966156  2784 layer_factory.hpp:77] Creating layer acc/top-1
I0723 00:37:16.966168  2784 net.cpp:86] Creating Layer acc/top-1
I0723 00:37:16.966177  2784 net.cpp:408] acc/top-1 <- pool5_pool5_0_split_1
I0723 00:37:16.966187  2784 net.cpp:408] acc/top-1 <- label_data_1_split_1
I0723 00:37:16.966202  2784 net.cpp:382] acc/top-1 -> acc/top-1
I0723 00:37:16.966233  2784 net.cpp:382] acc/top-1 -> class
I0723 00:37:16.966305  2784 net.cpp:124] Setting up acc/top-1
I0723 00:37:16.966331  2784 net.cpp:131] Top shape: (1)
I0723 00:37:16.966344  2784 net.cpp:131] Top shape: 3 (3)
I0723 00:37:16.966351  2784 net.cpp:139] Memory required for data: 1463353412
I0723 00:37:16.966361  2784 net.cpp:202] acc/top-1 does not need backward computation.
I0723 00:37:16.966375  2784 net.cpp:200] loss needs backward computation.
I0723 00:37:16.966383  2784 net.cpp:200] pool5_pool5_0_split needs backward computation.
I0723 00:37:16.966392  2784 net.cpp:200] pool5 needs backward computation.
…
