…
I0723 02:11:50.201012 27575 net.cpp:296] The NetState phase (0) differed from the phase (1) specified by a rule in layer acc/top-1
I0723 02:11:50.201362 27575 net.cpp:53] Initializing net from parameters: 
name: "tiny_shrinked_resnet10"
state {
  phase: TRAIN
  level: 0
  stage: ""
}
layer {
  name: "data"
  type: "Data"
  top: "data"
  top: "label"
  include {
    phase: TRAIN
  }
  transform_param {
    mirror: true
  }
  data_param {
    source: "/home/kenny/Desktop/AI-For-CV/week6_9_TinyProj/tiny_caffe_project/data_lmdb/train_lmdb"
    batch_size: 8
    backend: LMDB
  }
}
layer {
  name: "conv1"
  type: "Convolution"
  bottom: "data"
  top: "conv1"
  convolution_param {
    num_output: 32
    bias_term: false
    pad: 1
    kernel_size: 3
    stride: 1
    weight_filler {
      type: "msra"
    }
  }
}
layer {
  name: "bn_conv1"
  type: "BatchNorm"
  bottom: "conv1"
  top: "conv1"
  batch_norm_param {
    moving_average_fraction: 0.9
  }
}
layer {
  name: "scale_conv1"
  type: "Scale"
  bottom: "conv1"
  top: "conv1"
  scale_param {
    bias_term: true
  }
}
layer {
  name: "conv1_relu"
  type: "ReLU"
  bottom: "conv1"
  top: "conv1"
}
layer {
  name: "res2a_branch1"
  type: "Convolution"
  bottom: "conv1"
  top: "res2a_branch1"
  convolution_param {
    num_output: 32
    bias_term: false
    pad: 0
    kernel_size: 1
    stride: 1
    weight_filler {
      type: "msra"
    }
  }
}
layer {
  name: "bn2a_branch1"
  type: "BatchNorm"
  bottom: "res2a_branch1"
  top: "res2a_branch1"
  batch_norm_param {
    moving_average_fraction: 0.9
  }
}
layer {
  name: "scale2a_branch1"
  type: "Scale"
  bottom: "res2a_branch1"
  top: "res2a_branch1"
  scale_param {
    bias_term: true
  }
}
layer {
  name: "res2a_branch2a"
  type: "Convolution"
  bottom: "conv1"
  top: "res2a_branch2a"
  convolution_param {
    num_output: 32
    bias_term: false
    pad: 1
    kernel_size: 3
    stride: 1
    weight_filler {
      type: "msra"
    }
  }
}
layer {
  name: "bn2a_branch2a"
  type: "BatchNorm"
  bottom: "res2a_branch2a"
  top: "res2a_branch2a"
  batch_norm_param {
    moving_average_fraction: 0.9
  }
}
layer {
  name: "scale2a_branch2a"
  type: "Scale"
  bottom: "res2a_branch2a"
  top: "res2a_branch2a"
  scale_param {
    bias_term: true
  }
}
layer {
  name: "res2a_branch2a_relu"
  type: "ReLU"
  bottom: "res2a_branch2a"
  top: "res2a_branch2a"
}
layer {
  name: "res2a_branch2b"
  type: "Convolution"
  bottom: "res2a_branch2a"
  top: "res2a_branch2b"
  convolution_param {
    num_output: 32
    bias_term: false
    pad: 1
    kernel_size: 3
    stride: 1
    weight_filler {
      type: "msra"
    }
  }
}
layer {
  name: "bn2a_branch2b"
  type: "BatchNorm"
  bottom: "res2a_branch2b"
  top: "res2a_branch2b"
  batch_norm_param {
    moving_average_fraction: 0.9
  }
}
layer {
  name: "scale2a_branch2b"
  type: "Scale"
  bottom: "res2a_branch2b"
  top: "res2a_branch2b"
  scale_param {
    bias_term: true
  }
}
layer {
  name: "res2a"
  type: "Eltwise"
  bottom: "res2a_branch1"
  bottom: "res2a_branch2b"
  top: "res2a"
  eltwise_param {
    operation: SUM
  }
}
layer {
  name: "res2a_relu"
  type: "ReLU"
  bottom: "res2a"
  top: "res2a"
}
layer {
  name: "res2b_branch2a"
  type: "Convolution"
  bottom: "res2a"
  top: "res2b_branch2a"
  convolution_param {
    num_output: 32
    bias_term: false
    pad: 1
    kernel_size: 3
    stride: 1
    weight_filler {
      type: "msra"
    }
  }
}
layer {
  name: "bn2b_branch2a"
  type: "BatchNorm"
  bottom: "res2b_branch2a"
  top: "res2b_branch2a"
  batch_norm_param {
    moving_average_fraction: 0.9
  }
}
layer {
  name: "scale2b_branch2a"
  type: "Scale"
  bottom: "res2b_branch2a"
  top: "res2b_branch2a"
  scale_param {
    bias_term: true
  }
}
layer {
  name: "res2b_branch2a_relu"
  type: "ReLU"
  bottom: "res2b_branch2a"
  top: "res2b_branch2a"
}
layer {
  name: "res2b_branch2b"
  type: "Convolution"
  bottom: "res2b_branch2a"
  top: "res2b_branch2b"
  convolution_param {
    num_output: 32
    bias_term: false
    pad: 1
    kernel_size: 3
    stride: 1
    weight_filler {
      type: "msra"
    }
  }
}
layer {
  name: "bn2b_branch2b"
  type: "BatchNorm"
  bottom: "res2b_branch2b"
  top: "res2b_branch2b"
  batch_norm_param {
    moving_average_fraction: 0.9
  }
}
layer {
  name: "scale2b_branch2b"
  type: "Scale"
  bottom: "res2b_branch2b"
  top: "res2b_branch2b"
  scale_param {
    bias_term: true
  }
}
layer {
  name: "res2b"
  type: "Eltwise"
  bottom: "res2a"
  bottom: "res2b_branch2b"
  top: "res2b"
  eltwise_param {
    operation: SUM
  }
}
layer {
  name: "res2b_relu"
  type: "ReLU"
  bottom: "res2b"
  top: "res2b"
}
layer {
  name: "res3a_branch1"
  type: "Convolution"
  bottom: "res2b"
  top: "res3a_branch1"
  convolution_param {
    num_output: 64
    bias_term: false
    pad: 0
    kernel_size: 1
    stride: 2
    weight_filler {
      type: "msra"
    }
  }
}
layer {
  name: "bn3a_branch1"
  type: "BatchNorm"
  bottom: "res3a_branch1"
  top: "res3a_branch1"
  batch_norm_param {
    moving_average_fraction: 0.9
  }
}
layer {
  name: "scale3a_branch1"
  type: "Scale"
  bottom: "res3a_branch1"
  top: "res3a_branch1"
  scale_param {
    bias_term: true
  }
}
layer {
  name: "res3a_branch2a"
  type: "Convolution"
  bottom: "res2b"
  top: "res3a_branch2a"
  convolution_param {
    num_output: 64
    bias_term: false
    pad: 1
    kernel_size: 3
    stride: 2
    weight_filler {
      type: "msra"
    }
  }
}
layer {
  name: "bn3a_branch2a"
  type: "BatchNorm"
  bottom: "res3a_branch2a"
  top: "res3a_branch2a"
  batch_norm_param {
    moving_average_fraction: 0.9
  }
}
layer {
  name: "scale3a_branch2a"
  type: "Scale"
  bottom: "res3a_branch2a"
  top: "res3a_branch2a"
  scale_param {
    bias_term: true
  }
}
layer {
  name: "res3a_branch2a_relu"
  type: "ReLU"
  bottom: "res3a_branch2a"
  top: "res3a_branch2a"
}
layer {
  name: "res3a_branch2b"
  type: "Convolution"
  bottom: "res3a_branch2a"
  top: "res3a_branch2b"
  convolution_param {
    num_output: 64
    bias_term: false
    pad: 1
    kernel_size: 3
    stride: 1
    weight_filler {
      type: "msra"
    }
  }
}
layer {
  name: "bn3a_branch2b"
  type: "BatchNorm"
  bottom: "res3a_branch2b"
  top: "res3a_branch2b"
  batch_norm_param {
    moving_average_fraction: 0.9
  }
}
layer {
  name: "scale3a_branch2b"
  type: "Scale"
  bottom: "res3a_branch2b"
  top: "res3a_branch2b"
  scale_param {
    bias_term: true
  }
}
layer {
  name: "res3a"
  type: "Eltwise"
  bottom: "res3a_branch1"
  bottom: "res3a_branch2b"
  top: "res3a"
  eltwise_param {
    operation: SUM
  }
}
layer {
  name: "res3a_relu"
  type: "ReLU"
  bottom: "res3a"
  top: "res3a"
}
layer {
  name: "res3b_branch2a"
  type: "Convolution"
  bottom: "res3a"
  top: "res3b_branch2a"
  convolution_param {
    num_output: 64
    bias_term: false
    pad: 1
    kernel_size: 3
    stride: 1
    weight_filler {
      type: "msra"
    }
  }
}
layer {
  name: "bn3b_branch2a"
  type: "BatchNorm"
  bottom: "res3b_branch2a"
  top: "res3b_branch2a"
  batch_norm_param {
    moving_average_fraction: 0.9
  }
}
layer {
  name: "scale3b_branch2a"
  type: "Scale"
  bottom: "res3b_branch2a"
  top: "res3b_branch2a"
  scale_param {
    bias_term: true
  }
}
layer {
  name: "res3b_branch2a_relu"
  type: "ReLU"
  bottom: "res3b_branch2a"
  top: "res3b_branch2a"
}
layer {
  name: "res3b_branch2b"
  type: "Convolution"
  bottom: "res3b_branch2a"
  top: "res3b_branch2b"
  convolution_param {
    num_output: 64
    bias_term: false
    pad: 1
    kernel_size: 3
    stride: 1
    weight_filler {
      type: "msra"
    }
  }
}
layer {
  name: "bn3b_branch2b"
  type: "BatchNorm"
  bottom: "res3b_branch2b"
  top: "res3b_branch2b"
  batch_norm_param {
    moving_average_fraction: 0.9
  }
}
layer {
  name: "scale3b_branch2b"
  type: "Scale"
  bottom: "res3b_branch2b"
  top: "res3b_branch2b"
  scale_param {
    bias_term: true
  }
}
layer {
  name: "res3b"
  type: "Eltwise"
  bottom: "res3a"
  bottom: "res3b_branch2b"
  top: "res3b"
  eltwise_param {
    operation: SUM
  }
}
layer {
  name: "res3b_relu"
  type: "ReLU"
  bottom: "res3b"
  top: "res3b"
}
layer {
  name: "res4a_branch2a"
  type: "Convolution"
  bottom: "res3b"
  top: "res4a_branch2a"
  convolution_param {
    num_output: 128
    bias_term: false
    pad: 1
    kernel_size: 3
    stride: 2
    weight_filler {
      type: "msra"
    }
  }
}
layer {
  name: "bn4a_branch2a"
  type: "BatchNorm"
  bottom: "res4a_branch2a"
  top: "res4a_branch2a"
  batch_norm_param {
    moving_average_fraction: 0.9
  }
}
layer {
  name: "scale4a_branch2a"
  type: "Scale"
  bottom: "res4a_branch2a"
  top: "res4a_branch2a"
  scale_param {
    bias_term: true
  }
}
layer {
  name: "res4a_branch2a_relu"
  type: "ReLU"
  bottom: "res4a_branch2a"
  top: "res4a_branch2a"
}
layer {
  name: "res4a_branch2b"
  type: "Convolution"
  bottom: "res4a_branch2a"
  top: "res4a_branch2b"
  convolution_param {
    num_output: 3
    bias_term: false
    pad: 1
    kernel_size: 3
    stride: 1
    weight_filler {
      type: "msra"
    }
  }
}
layer {
  name: "bn4a_branch2b"
  type: "BatchNorm"
  bottom: "res4a_branch2b"
  top: "res4a_branch2b"
  batch_norm_param {
    moving_average_fraction: 0.9
  }
}
layer {
  name: "scale4a_branch2b"
  type: "Scale"
  bottom: "res4a_branch2b"
  top: "res4a_branch2b"
  scale_param {
    bias_term: true
  }
}
layer {
  name: "pool5"
  type: "Pooling"
  bottom: "res4a_branch2b"
  top: "pool5"
  pooling_param {
    pool: AVE
    global_pooling: true
  }
}
layer {
  name: "loss"
  type: "SoftmaxWithLoss"
  bottom: "pool5"
  bottom: "label"
  top: "loss"
}
layer {
  name: "acc/top-1"
  type: "Accuracy"
  bottom: "pool5"
  bottom: "label"
  top: "acc/top-1"
  top: "class"
  include {
    phase: TEST
  }
  include {
    phase: TRAIN
  }
}
I0723 02:11:50.201771 27575 layer_factory.hpp:77] Creating layer data
I0723 02:11:50.201916 27575 db_lmdb.cpp:35] Opened lmdb /home/kenny/Desktop/AI-For-CV/week6_9_TinyProj/tiny_caffe_project/data_lmdb/train_lmdb
I0723 02:11:50.201956 27575 net.cpp:86] Creating Layer data
I0723 02:11:50.201980 27575 net.cpp:382] data -> data
I0723 02:11:50.202021 27575 net.cpp:382] data -> label
I0723 02:11:50.203452 27575 data_layer.cpp:45] output data size: 8,3,224,224
I0723 02:11:50.220082 27575 net.cpp:124] Setting up data
I0723 02:11:50.220118 27575 net.cpp:131] Top shape: 8 3 224 224 (1204224)
I0723 02:11:50.220131 27575 net.cpp:131] Top shape: 8 (8)
I0723 02:11:50.220139 27575 net.cpp:139] Memory required for data: 4816928
I0723 02:11:50.220157 27575 layer_factory.hpp:77] Creating layer label_data_1_split
I0723 02:11:50.220188 27575 net.cpp:86] Creating Layer label_data_1_split
I0723 02:11:50.220203 27575 net.cpp:408] label_data_1_split <- label
I0723 02:11:50.220235 27575 net.cpp:382] label_data_1_split -> label_data_1_split_0
I0723 02:11:50.220261 27575 net.cpp:382] label_data_1_split -> label_data_1_split_1
I0723 02:11:50.220325 27575 net.cpp:124] Setting up label_data_1_split
I0723 02:11:50.220341 27575 net.cpp:131] Top shape: 8 (8)
I0723 02:11:50.220351 27575 net.cpp:131] Top shape: 8 (8)
I0723 02:11:50.220358 27575 net.cpp:139] Memory required for data: 4816992
I0723 02:11:50.220366 27575 layer_factory.hpp:77] Creating layer conv1
I0723 02:11:50.220392 27575 net.cpp:86] Creating Layer conv1
I0723 02:11:50.220422 27575 net.cpp:408] conv1 <- data
I0723 02:11:50.220438 27575 net.cpp:382] conv1 -> conv1
I0723 02:11:50.317668 27583 data_layer.cpp:73] Restarting data prefetching from start.
I0723 02:11:51.086740 27575 net.cpp:124] Setting up conv1
I0723 02:11:51.086800 27575 net.cpp:131] Top shape: 8 32 224 224 (12845056)
I0723 02:11:51.086814 27575 net.cpp:139] Memory required for data: 56197216
I0723 02:11:51.086848 27575 layer_factory.hpp:77] Creating layer bn_conv1
I0723 02:11:51.086874 27575 net.cpp:86] Creating Layer bn_conv1
I0723 02:11:51.086886 27575 net.cpp:408] bn_conv1 <- conv1
I0723 02:11:51.086901 27575 net.cpp:369] bn_conv1 -> conv1 (in-place)
I0723 02:11:51.088547 27575 net.cpp:124] Setting up bn_conv1
I0723 02:11:51.088569 27575 net.cpp:131] Top shape: 8 32 224 224 (12845056)
I0723 02:11:51.088577 27575 net.cpp:139] Memory required for data: 107577440
I0723 02:11:51.088598 27575 layer_factory.hpp:77] Creating layer scale_conv1
I0723 02:11:51.088614 27575 net.cpp:86] Creating Layer scale_conv1
I0723 02:11:51.088624 27575 net.cpp:408] scale_conv1 <- conv1
I0723 02:11:51.088639 27575 net.cpp:369] scale_conv1 -> conv1 (in-place)
I0723 02:11:51.088708 27575 layer_factory.hpp:77] Creating layer scale_conv1
I0723 02:11:51.088929 27575 net.cpp:124] Setting up scale_conv1
I0723 02:11:51.088948 27575 net.cpp:131] Top shape: 8 32 224 224 (12845056)
I0723 02:11:51.088955 27575 net.cpp:139] Memory required for data: 158957664
I0723 02:11:51.088970 27575 layer_factory.hpp:77] Creating layer conv1_relu
I0723 02:11:51.088984 27575 net.cpp:86] Creating Layer conv1_relu
I0723 02:11:51.088994 27575 net.cpp:408] conv1_relu <- conv1
I0723 02:11:51.089002 27575 net.cpp:369] conv1_relu -> conv1 (in-place)
I0723 02:11:51.089656 27575 net.cpp:124] Setting up conv1_relu
I0723 02:11:51.089675 27575 net.cpp:131] Top shape: 8 32 224 224 (12845056)
I0723 02:11:51.089684 27575 net.cpp:139] Memory required for data: 210337888
I0723 02:11:51.089690 27575 layer_factory.hpp:77] Creating layer conv1_conv1_relu_0_split
I0723 02:11:51.089702 27575 net.cpp:86] Creating Layer conv1_conv1_relu_0_split
I0723 02:11:51.089711 27575 net.cpp:408] conv1_conv1_relu_0_split <- conv1
I0723 02:11:51.089725 27575 net.cpp:382] conv1_conv1_relu_0_split -> conv1_conv1_relu_0_split_0
I0723 02:11:51.089741 27575 net.cpp:382] conv1_conv1_relu_0_split -> conv1_conv1_relu_0_split_1
I0723 02:11:51.089804 27575 net.cpp:124] Setting up conv1_conv1_relu_0_split
I0723 02:11:51.089821 27575 net.cpp:131] Top shape: 8 32 224 224 (12845056)
I0723 02:11:51.089831 27575 net.cpp:131] Top shape: 8 32 224 224 (12845056)
I0723 02:11:51.089838 27575 net.cpp:139] Memory required for data: 313098336
I0723 02:11:51.089846 27575 layer_factory.hpp:77] Creating layer res2a_branch1
I0723 02:11:51.089865 27575 net.cpp:86] Creating Layer res2a_branch1
I0723 02:11:51.089875 27575 net.cpp:408] res2a_branch1 <- conv1_conv1_relu_0_split_0
I0723 02:11:51.089887 27575 net.cpp:382] res2a_branch1 -> res2a_branch1
I0723 02:11:51.093226 27575 net.cpp:124] Setting up res2a_branch1
I0723 02:11:51.093251 27575 net.cpp:131] Top shape: 8 32 224 224 (12845056)
I0723 02:11:51.093261 27575 net.cpp:139] Memory required for data: 364478560
I0723 02:11:51.093273 27575 layer_factory.hpp:77] Creating layer bn2a_branch1
I0723 02:11:51.093291 27575 net.cpp:86] Creating Layer bn2a_branch1
I0723 02:11:51.093302 27575 net.cpp:408] bn2a_branch1 <- res2a_branch1
I0723 02:11:51.093313 27575 net.cpp:369] bn2a_branch1 -> res2a_branch1 (in-place)
I0723 02:11:51.093603 27575 net.cpp:124] Setting up bn2a_branch1
I0723 02:11:51.093621 27575 net.cpp:131] Top shape: 8 32 224 224 (12845056)
I0723 02:11:51.093628 27575 net.cpp:139] Memory required for data: 415858784
I0723 02:11:51.093645 27575 layer_factory.hpp:77] Creating layer scale2a_branch1
I0723 02:11:51.093658 27575 net.cpp:86] Creating Layer scale2a_branch1
I0723 02:11:51.093667 27575 net.cpp:408] scale2a_branch1 <- res2a_branch1
I0723 02:11:51.093677 27575 net.cpp:369] scale2a_branch1 -> res2a_branch1 (in-place)
I0723 02:11:51.093739 27575 layer_factory.hpp:77] Creating layer scale2a_branch1
I0723 02:11:51.093978 27575 net.cpp:124] Setting up scale2a_branch1
I0723 02:11:51.093997 27575 net.cpp:131] Top shape: 8 32 224 224 (12845056)
I0723 02:11:51.094004 27575 net.cpp:139] Memory required for data: 467239008
I0723 02:11:51.094017 27575 layer_factory.hpp:77] Creating layer res2a_branch2a
I0723 02:11:51.094038 27575 net.cpp:86] Creating Layer res2a_branch2a
I0723 02:11:51.094048 27575 net.cpp:408] res2a_branch2a <- conv1_conv1_relu_0_split_1
I0723 02:11:51.094061 27575 net.cpp:382] res2a_branch2a -> res2a_branch2a
I0723 02:11:51.098170 27575 net.cpp:124] Setting up res2a_branch2a
I0723 02:11:51.098192 27575 net.cpp:131] Top shape: 8 32 224 224 (12845056)
I0723 02:11:51.098201 27575 net.cpp:139] Memory required for data: 518619232
I0723 02:11:51.098212 27575 layer_factory.hpp:77] Creating layer bn2a_branch2a
I0723 02:11:51.098227 27575 net.cpp:86] Creating Layer bn2a_branch2a
I0723 02:11:51.098237 27575 net.cpp:408] bn2a_branch2a <- res2a_branch2a
I0723 02:11:51.098246 27575 net.cpp:369] bn2a_branch2a -> res2a_branch2a (in-place)
I0723 02:11:51.098620 27575 net.cpp:124] Setting up bn2a_branch2a
I0723 02:11:51.098646 27575 net.cpp:131] Top shape: 8 32 224 224 (12845056)
I0723 02:11:51.098660 27575 net.cpp:139] Memory required for data: 569999456
I0723 02:11:51.098686 27575 layer_factory.hpp:77] Creating layer scale2a_branch2a
I0723 02:11:51.098709 27575 net.cpp:86] Creating Layer scale2a_branch2a
I0723 02:11:51.098719 27575 net.cpp:408] scale2a_branch2a <- res2a_branch2a
I0723 02:11:51.098731 27575 net.cpp:369] scale2a_branch2a -> res2a_branch2a (in-place)
I0723 02:11:51.098798 27575 layer_factory.hpp:77] Creating layer scale2a_branch2a
I0723 02:11:51.099030 27575 net.cpp:124] Setting up scale2a_branch2a
I0723 02:11:51.099048 27575 net.cpp:131] Top shape: 8 32 224 224 (12845056)
I0723 02:11:51.099056 27575 net.cpp:139] Memory required for data: 621379680
I0723 02:11:51.099076 27575 layer_factory.hpp:77] Creating layer res2a_branch2a_relu
I0723 02:11:51.099088 27575 net.cpp:86] Creating Layer res2a_branch2a_relu
I0723 02:11:51.099097 27575 net.cpp:408] res2a_branch2a_relu <- res2a_branch2a
I0723 02:11:51.099110 27575 net.cpp:369] res2a_branch2a_relu -> res2a_branch2a (in-place)
I0723 02:11:51.100016 27575 net.cpp:124] Setting up res2a_branch2a_relu
I0723 02:11:51.100044 27575 net.cpp:131] Top shape: 8 32 224 224 (12845056)
I0723 02:11:51.100057 27575 net.cpp:139] Memory required for data: 672759904
I0723 02:11:51.100072 27575 layer_factory.hpp:77] Creating layer res2a_branch2b
I0723 02:11:51.100096 27575 net.cpp:86] Creating Layer res2a_branch2b
I0723 02:11:51.100111 27575 net.cpp:408] res2a_branch2b <- res2a_branch2a
I0723 02:11:51.100133 27575 net.cpp:382] res2a_branch2b -> res2a_branch2b
I0723 02:11:51.104749 27575 net.cpp:124] Setting up res2a_branch2b
I0723 02:11:51.104774 27575 net.cpp:131] Top shape: 8 32 224 224 (12845056)
I0723 02:11:51.104782 27575 net.cpp:139] Memory required for data: 724140128
I0723 02:11:51.104794 27575 layer_factory.hpp:77] Creating layer bn2a_branch2b
I0723 02:11:51.104805 27575 net.cpp:86] Creating Layer bn2a_branch2b
I0723 02:11:51.104816 27575 net.cpp:408] bn2a_branch2b <- res2a_branch2b
I0723 02:11:51.104830 27575 net.cpp:369] bn2a_branch2b -> res2a_branch2b (in-place)
I0723 02:11:51.105136 27575 net.cpp:124] Setting up bn2a_branch2b
I0723 02:11:51.105154 27575 net.cpp:131] Top shape: 8 32 224 224 (12845056)
I0723 02:11:51.105161 27575 net.cpp:139] Memory required for data: 775520352
I0723 02:11:51.105175 27575 layer_factory.hpp:77] Creating layer scale2a_branch2b
I0723 02:11:51.105193 27575 net.cpp:86] Creating Layer scale2a_branch2b
I0723 02:11:51.105201 27575 net.cpp:408] scale2a_branch2b <- res2a_branch2b
I0723 02:11:51.105216 27575 net.cpp:369] scale2a_branch2b -> res2a_branch2b (in-place)
I0723 02:11:51.105279 27575 layer_factory.hpp:77] Creating layer scale2a_branch2b
I0723 02:11:51.106636 27575 net.cpp:124] Setting up scale2a_branch2b
I0723 02:11:51.106660 27575 net.cpp:131] Top shape: 8 32 224 224 (12845056)
I0723 02:11:51.106684 27575 net.cpp:139] Memory required for data: 826900576
I0723 02:11:51.106698 27575 layer_factory.hpp:77] Creating layer res2a
I0723 02:11:51.106710 27575 net.cpp:86] Creating Layer res2a
I0723 02:11:51.106720 27575 net.cpp:408] res2a <- res2a_branch1
I0723 02:11:51.106729 27575 net.cpp:408] res2a <- res2a_branch2b
I0723 02:11:51.106742 27575 net.cpp:382] res2a -> res2a
I0723 02:11:51.106794 27575 net.cpp:124] Setting up res2a
I0723 02:11:51.106811 27575 net.cpp:131] Top shape: 8 32 224 224 (12845056)
I0723 02:11:51.106818 27575 net.cpp:139] Memory required for data: 878280800
I0723 02:11:51.106827 27575 layer_factory.hpp:77] Creating layer res2a_relu
I0723 02:11:51.106837 27575 net.cpp:86] Creating Layer res2a_relu
I0723 02:11:51.106847 27575 net.cpp:408] res2a_relu <- res2a
I0723 02:11:51.106855 27575 net.cpp:369] res2a_relu -> res2a (in-place)
I0723 02:11:51.107587 27575 net.cpp:124] Setting up res2a_relu
I0723 02:11:51.107610 27575 net.cpp:131] Top shape: 8 32 224 224 (12845056)
I0723 02:11:51.107620 27575 net.cpp:139] Memory required for data: 929661024
I0723 02:11:51.107628 27575 layer_factory.hpp:77] Creating layer res2a_res2a_relu_0_split
I0723 02:11:51.107641 27575 net.cpp:86] Creating Layer res2a_res2a_relu_0_split
I0723 02:11:51.107651 27575 net.cpp:408] res2a_res2a_relu_0_split <- res2a
I0723 02:11:51.107662 27575 net.cpp:382] res2a_res2a_relu_0_split -> res2a_res2a_relu_0_split_0
I0723 02:11:51.107676 27575 net.cpp:382] res2a_res2a_relu_0_split -> res2a_res2a_relu_0_split_1
I0723 02:11:51.107740 27575 net.cpp:124] Setting up res2a_res2a_relu_0_split
I0723 02:11:51.107756 27575 net.cpp:131] Top shape: 8 32 224 224 (12845056)
I0723 02:11:51.107766 27575 net.cpp:131] Top shape: 8 32 224 224 (12845056)
I0723 02:11:51.107774 27575 net.cpp:139] Memory required for data: 1032421472
I0723 02:11:51.107782 27575 layer_factory.hpp:77] Creating layer res2b_branch2a
I0723 02:11:51.107797 27575 net.cpp:86] Creating Layer res2b_branch2a
I0723 02:11:51.107806 27575 net.cpp:408] res2b_branch2a <- res2a_res2a_relu_0_split_0
I0723 02:11:51.107821 27575 net.cpp:382] res2b_branch2a -> res2b_branch2a
I0723 02:11:51.111222 27575 net.cpp:124] Setting up res2b_branch2a
I0723 02:11:51.111245 27575 net.cpp:131] Top shape: 8 32 224 224 (12845056)
I0723 02:11:51.111253 27575 net.cpp:139] Memory required for data: 1083801696
I0723 02:11:51.111263 27575 layer_factory.hpp:77] Creating layer bn2b_branch2a
I0723 02:11:51.111276 27575 net.cpp:86] Creating Layer bn2b_branch2a
I0723 02:11:51.111289 27575 net.cpp:408] bn2b_branch2a <- res2b_branch2a
I0723 02:11:51.111299 27575 net.cpp:369] bn2b_branch2a -> res2b_branch2a (in-place)
I0723 02:11:51.111598 27575 net.cpp:124] Setting up bn2b_branch2a
I0723 02:11:51.111616 27575 net.cpp:131] Top shape: 8 32 224 224 (12845056)
I0723 02:11:51.111624 27575 net.cpp:139] Memory required for data: 1135181920
I0723 02:11:51.111637 27575 layer_factory.hpp:77] Creating layer scale2b_branch2a
I0723 02:11:51.111649 27575 net.cpp:86] Creating Layer scale2b_branch2a
I0723 02:11:51.111660 27575 net.cpp:408] scale2b_branch2a <- res2b_branch2a
I0723 02:11:51.111670 27575 net.cpp:369] scale2b_branch2a -> res2b_branch2a (in-place)
I0723 02:11:51.111735 27575 layer_factory.hpp:77] Creating layer scale2b_branch2a
I0723 02:11:51.111966 27575 net.cpp:124] Setting up scale2b_branch2a
I0723 02:11:51.111984 27575 net.cpp:131] Top shape: 8 32 224 224 (12845056)
I0723 02:11:51.111992 27575 net.cpp:139] Memory required for data: 1186562144
I0723 02:11:51.112004 27575 layer_factory.hpp:77] Creating layer res2b_branch2a_relu
I0723 02:11:51.112017 27575 net.cpp:86] Creating Layer res2b_branch2a_relu
I0723 02:11:51.112026 27575 net.cpp:408] res2b_branch2a_relu <- res2b_branch2a
I0723 02:11:51.112040 27575 net.cpp:369] res2b_branch2a_relu -> res2b_branch2a (in-place)
I0723 02:11:51.113188 27575 net.cpp:124] Setting up res2b_branch2a_relu
I0723 02:11:51.113209 27575 net.cpp:131] Top shape: 8 32 224 224 (12845056)
I0723 02:11:51.113216 27575 net.cpp:139] Memory required for data: 1237942368
I0723 02:11:51.113224 27575 layer_factory.hpp:77] Creating layer res2b_branch2b
I0723 02:11:51.113257 27575 net.cpp:86] Creating Layer res2b_branch2b
I0723 02:11:51.113270 27575 net.cpp:408] res2b_branch2b <- res2b_branch2a
I0723 02:11:51.113282 27575 net.cpp:382] res2b_branch2b -> res2b_branch2b
I0723 02:11:51.116539 27575 net.cpp:124] Setting up res2b_branch2b
I0723 02:11:51.116570 27575 net.cpp:131] Top shape: 8 32 224 224 (12845056)
I0723 02:11:51.116585 27575 net.cpp:139] Memory required for data: 1289322592
I0723 02:11:51.116601 27575 layer_factory.hpp:77] Creating layer bn2b_branch2b
I0723 02:11:51.116619 27575 net.cpp:86] Creating Layer bn2b_branch2b
I0723 02:11:51.116636 27575 net.cpp:408] bn2b_branch2b <- res2b_branch2b
I0723 02:11:51.116660 27575 net.cpp:369] bn2b_branch2b -> res2b_branch2b (in-place)
I0723 02:11:51.117188 27575 net.cpp:124] Setting up bn2b_branch2b
I0723 02:11:51.117218 27575 net.cpp:131] Top shape: 8 32 224 224 (12845056)
I0723 02:11:51.117235 27575 net.cpp:139] Memory required for data: 1340702816
I0723 02:11:51.117269 27575 layer_factory.hpp:77] Creating layer scale2b_branch2b
I0723 02:11:51.117291 27575 net.cpp:86] Creating Layer scale2b_branch2b
I0723 02:11:51.117308 27575 net.cpp:408] scale2b_branch2b <- res2b_branch2b
I0723 02:11:51.117331 27575 net.cpp:369] scale2b_branch2b -> res2b_branch2b (in-place)
I0723 02:11:51.117444 27575 layer_factory.hpp:77] Creating layer scale2b_branch2b
I0723 02:11:51.117827 27575 net.cpp:124] Setting up scale2b_branch2b
I0723 02:11:51.117853 27575 net.cpp:131] Top shape: 8 32 224 224 (12845056)
I0723 02:11:51.117868 27575 net.cpp:139] Memory required for data: 1392083040
I0723 02:11:51.117889 27575 layer_factory.hpp:77] Creating layer res2b
I0723 02:11:51.117909 27575 net.cpp:86] Creating Layer res2b
I0723 02:11:51.117925 27575 net.cpp:408] res2b <- res2a_res2a_relu_0_split_1
I0723 02:11:51.117942 27575 net.cpp:408] res2b <- res2b_branch2b
I0723 02:11:51.117965 27575 net.cpp:382] res2b -> res2b
I0723 02:11:51.118028 27575 net.cpp:124] Setting up res2b
I0723 02:11:51.118052 27575 net.cpp:131] Top shape: 8 32 224 224 (12845056)
I0723 02:11:51.118067 27575 net.cpp:139] Memory required for data: 1443463264
I0723 02:11:51.118083 27575 layer_factory.hpp:77] Creating layer res2b_relu
I0723 02:11:51.118100 27575 net.cpp:86] Creating Layer res2b_relu
I0723 02:11:51.118115 27575 net.cpp:408] res2b_relu <- res2b
I0723 02:11:51.118134 27575 net.cpp:369] res2b_relu -> res2b (in-place)
I0723 02:11:51.119829 27575 net.cpp:124] Setting up res2b_relu
I0723 02:11:51.119861 27575 net.cpp:131] Top shape: 8 32 224 224 (12845056)
I0723 02:11:51.119875 27575 net.cpp:139] Memory required for data: 1494843488
I0723 02:11:51.119889 27575 layer_factory.hpp:77] Creating layer res2b_res2b_relu_0_split
I0723 02:11:51.119904 27575 net.cpp:86] Creating Layer res2b_res2b_relu_0_split
I0723 02:11:51.119920 27575 net.cpp:408] res2b_res2b_relu_0_split <- res2b
I0723 02:11:51.119946 27575 net.cpp:382] res2b_res2b_relu_0_split -> res2b_res2b_relu_0_split_0
I0723 02:11:51.119980 27575 net.cpp:382] res2b_res2b_relu_0_split -> res2b_res2b_relu_0_split_1
I0723 02:11:51.120077 27575 net.cpp:124] Setting up res2b_res2b_relu_0_split
I0723 02:11:51.120096 27575 net.cpp:131] Top shape: 8 32 224 224 (12845056)
I0723 02:11:51.120108 27575 net.cpp:131] Top shape: 8 32 224 224 (12845056)
I0723 02:11:51.120115 27575 net.cpp:139] Memory required for data: 1597603936
I0723 02:11:51.120124 27575 layer_factory.hpp:77] Creating layer res3a_branch1
I0723 02:11:51.120142 27575 net.cpp:86] Creating Layer res3a_branch1
I0723 02:11:51.120152 27575 net.cpp:408] res3a_branch1 <- res2b_res2b_relu_0_split_0
I0723 02:11:51.120167 27575 net.cpp:382] res3a_branch1 -> res3a_branch1
I0723 02:11:51.124686 27575 net.cpp:124] Setting up res3a_branch1
I0723 02:11:51.124711 27575 net.cpp:131] Top shape: 8 64 112 112 (6422528)
I0723 02:11:51.124720 27575 net.cpp:139] Memory required for data: 1623294048
I0723 02:11:51.124730 27575 layer_factory.hpp:77] Creating layer bn3a_branch1
I0723 02:11:51.124743 27575 net.cpp:86] Creating Layer bn3a_branch1
I0723 02:11:51.124753 27575 net.cpp:408] bn3a_branch1 <- res3a_branch1
I0723 02:11:51.124784 27575 net.cpp:369] bn3a_branch1 -> res3a_branch1 (in-place)
I0723 02:11:51.125073 27575 net.cpp:124] Setting up bn3a_branch1
I0723 02:11:51.125090 27575 net.cpp:131] Top shape: 8 64 112 112 (6422528)
I0723 02:11:51.125099 27575 net.cpp:139] Memory required for data: 1648984160
I0723 02:11:51.125113 27575 layer_factory.hpp:77] Creating layer scale3a_branch1
I0723 02:11:51.125135 27575 net.cpp:86] Creating Layer scale3a_branch1
I0723 02:11:51.125145 27575 net.cpp:408] scale3a_branch1 <- res3a_branch1
I0723 02:11:51.125156 27575 net.cpp:369] scale3a_branch1 -> res3a_branch1 (in-place)
I0723 02:11:51.125222 27575 layer_factory.hpp:77] Creating layer scale3a_branch1
I0723 02:11:51.125409 27575 net.cpp:124] Setting up scale3a_branch1
I0723 02:11:51.125427 27575 net.cpp:131] Top shape: 8 64 112 112 (6422528)
I0723 02:11:51.125437 27575 net.cpp:139] Memory required for data: 1674674272
I0723 02:11:51.125449 27575 layer_factory.hpp:77] Creating layer res3a_branch2a
I0723 02:11:51.125471 27575 net.cpp:86] Creating Layer res3a_branch2a
I0723 02:11:51.125483 27575 net.cpp:408] res3a_branch2a <- res2b_res2b_relu_0_split_1
I0723 02:11:51.125494 27575 net.cpp:382] res3a_branch2a -> res3a_branch2a
I0723 02:11:51.128692 27575 net.cpp:124] Setting up res3a_branch2a
I0723 02:11:51.128715 27575 net.cpp:131] Top shape: 8 64 112 112 (6422528)
I0723 02:11:51.128722 27575 net.cpp:139] Memory required for data: 1700364384
I0723 02:11:51.128732 27575 layer_factory.hpp:77] Creating layer bn3a_branch2a
I0723 02:11:51.128749 27575 net.cpp:86] Creating Layer bn3a_branch2a
I0723 02:11:51.128760 27575 net.cpp:408] bn3a_branch2a <- res3a_branch2a
I0723 02:11:51.128772 27575 net.cpp:369] bn3a_branch2a -> res3a_branch2a (in-place)
I0723 02:11:51.129048 27575 net.cpp:124] Setting up bn3a_branch2a
I0723 02:11:51.129065 27575 net.cpp:131] Top shape: 8 64 112 112 (6422528)
I0723 02:11:51.129072 27575 net.cpp:139] Memory required for data: 1726054496
I0723 02:11:51.129086 27575 layer_factory.hpp:77] Creating layer scale3a_branch2a
I0723 02:11:51.129101 27575 net.cpp:86] Creating Layer scale3a_branch2a
I0723 02:11:51.129110 27575 net.cpp:408] scale3a_branch2a <- res3a_branch2a
I0723 02:11:51.129122 27575 net.cpp:369] scale3a_branch2a -> res3a_branch2a (in-place)
I0723 02:11:51.129185 27575 layer_factory.hpp:77] Creating layer scale3a_branch2a
I0723 02:11:51.129374 27575 net.cpp:124] Setting up scale3a_branch2a
I0723 02:11:51.129390 27575 net.cpp:131] Top shape: 8 64 112 112 (6422528)
I0723 02:11:51.129400 27575 net.cpp:139] Memory required for data: 1751744608
I0723 02:11:51.129411 27575 layer_factory.hpp:77] Creating layer res3a_branch2a_relu
I0723 02:11:51.129426 27575 net.cpp:86] Creating Layer res3a_branch2a_relu
I0723 02:11:51.129432 27575 net.cpp:408] res3a_branch2a_relu <- res3a_branch2a
I0723 02:11:51.129446 27575 net.cpp:369] res3a_branch2a_relu -> res3a_branch2a (in-place)
I0723 02:11:51.130651 27575 net.cpp:124] Setting up res3a_branch2a_relu
I0723 02:11:51.130676 27575 net.cpp:131] Top shape: 8 64 112 112 (6422528)
I0723 02:11:51.130687 27575 net.cpp:139] Memory required for data: 1777434720
I0723 02:11:51.130695 27575 layer_factory.hpp:77] Creating layer res3a_branch2b
I0723 02:11:51.130713 27575 net.cpp:86] Creating Layer res3a_branch2b
I0723 02:11:51.130723 27575 net.cpp:408] res3a_branch2b <- res3a_branch2a
I0723 02:11:51.130735 27575 net.cpp:382] res3a_branch2b -> res3a_branch2b
I0723 02:11:51.135417 27575 net.cpp:124] Setting up res3a_branch2b
I0723 02:11:51.135442 27575 net.cpp:131] Top shape: 8 64 112 112 (6422528)
I0723 02:11:51.135449 27575 net.cpp:139] Memory required for data: 1803124832
I0723 02:11:51.135462 27575 layer_factory.hpp:77] Creating layer bn3a_branch2b
I0723 02:11:51.135475 27575 net.cpp:86] Creating Layer bn3a_branch2b
I0723 02:11:51.135486 27575 net.cpp:408] bn3a_branch2b <- res3a_branch2b
I0723 02:11:51.135499 27575 net.cpp:369] bn3a_branch2b -> res3a_branch2b (in-place)
I0723 02:11:51.135818 27575 net.cpp:124] Setting up bn3a_branch2b
I0723 02:11:51.135862 27575 net.cpp:131] Top shape: 8 64 112 112 (6422528)
I0723 02:11:51.135879 27575 net.cpp:139] Memory required for data: 1828814944
I0723 02:11:51.135905 27575 layer_factory.hpp:77] Creating layer scale3a_branch2b
I0723 02:11:51.135926 27575 net.cpp:86] Creating Layer scale3a_branch2b
I0723 02:11:51.135941 27575 net.cpp:408] scale3a_branch2b <- res3a_branch2b
I0723 02:11:51.135962 27575 net.cpp:369] scale3a_branch2b -> res3a_branch2b (in-place)
I0723 02:11:51.136045 27575 layer_factory.hpp:77] Creating layer scale3a_branch2b
I0723 02:11:51.136330 27575 net.cpp:124] Setting up scale3a_branch2b
I0723 02:11:51.136349 27575 net.cpp:131] Top shape: 8 64 112 112 (6422528)
I0723 02:11:51.136358 27575 net.cpp:139] Memory required for data: 1854505056
I0723 02:11:51.136369 27575 layer_factory.hpp:77] Creating layer res3a
I0723 02:11:51.136384 27575 net.cpp:86] Creating Layer res3a
I0723 02:11:51.136392 27575 net.cpp:408] res3a <- res3a_branch1
I0723 02:11:51.136405 27575 net.cpp:408] res3a <- res3a_branch2b
I0723 02:11:51.136416 27575 net.cpp:382] res3a -> res3a
I0723 02:11:51.136478 27575 net.cpp:124] Setting up res3a
I0723 02:11:51.136500 27575 net.cpp:131] Top shape: 8 64 112 112 (6422528)
I0723 02:11:51.136514 27575 net.cpp:139] Memory required for data: 1880195168
I0723 02:11:51.136529 27575 layer_factory.hpp:77] Creating layer res3a_relu
I0723 02:11:51.136548 27575 net.cpp:86] Creating Layer res3a_relu
I0723 02:11:51.136561 27575 net.cpp:408] res3a_relu <- res3a
I0723 02:11:51.136584 27575 net.cpp:369] res3a_relu -> res3a (in-place)
I0723 02:11:51.137373 27575 net.cpp:124] Setting up res3a_relu
I0723 02:11:51.137393 27575 net.cpp:131] Top shape: 8 64 112 112 (6422528)
I0723 02:11:51.137403 27575 net.cpp:139] Memory required for data: 1905885280
I0723 02:11:51.137410 27575 layer_factory.hpp:77] Creating layer res3a_res3a_relu_0_split
I0723 02:11:51.137423 27575 net.cpp:86] Creating Layer res3a_res3a_relu_0_split
I0723 02:11:51.137434 27575 net.cpp:408] res3a_res3a_relu_0_split <- res3a
I0723 02:11:51.137447 27575 net.cpp:382] res3a_res3a_relu_0_split -> res3a_res3a_relu_0_split_0
I0723 02:11:51.137462 27575 net.cpp:382] res3a_res3a_relu_0_split -> res3a_res3a_relu_0_split_1
I0723 02:11:51.137531 27575 net.cpp:124] Setting up res3a_res3a_relu_0_split
I0723 02:11:51.137545 27575 net.cpp:131] Top shape: 8 64 112 112 (6422528)
I0723 02:11:51.137557 27575 net.cpp:131] Top shape: 8 64 112 112 (6422528)
I0723 02:11:51.137563 27575 net.cpp:139] Memory required for data: 1957265504
I0723 02:11:51.137573 27575 layer_factory.hpp:77] Creating layer res3b_branch2a
I0723 02:11:51.137591 27575 net.cpp:86] Creating Layer res3b_branch2a
I0723 02:11:51.137600 27575 net.cpp:408] res3b_branch2a <- res3a_res3a_relu_0_split_0
I0723 02:11:51.137614 27575 net.cpp:382] res3b_branch2a -> res3b_branch2a
I0723 02:11:51.141906 27575 net.cpp:124] Setting up res3b_branch2a
I0723 02:11:51.141928 27575 net.cpp:131] Top shape: 8 64 112 112 (6422528)
I0723 02:11:51.141938 27575 net.cpp:139] Memory required for data: 1982955616
I0723 02:11:51.141949 27575 layer_factory.hpp:77] Creating layer bn3b_branch2a
I0723 02:11:51.141966 27575 net.cpp:86] Creating Layer bn3b_branch2a
I0723 02:11:51.141976 27575 net.cpp:408] bn3b_branch2a <- res3b_branch2a
I0723 02:11:51.141988 27575 net.cpp:369] bn3b_branch2a -> res3b_branch2a (in-place)
I0723 02:11:51.142277 27575 net.cpp:124] Setting up bn3b_branch2a
I0723 02:11:51.142294 27575 net.cpp:131] Top shape: 8 64 112 112 (6422528)
I0723 02:11:51.142303 27575 net.cpp:139] Memory required for data: 2008645728
I0723 02:11:51.142318 27575 layer_factory.hpp:77] Creating layer scale3b_branch2a
I0723 02:11:51.142349 27575 net.cpp:86] Creating Layer scale3b_branch2a
I0723 02:11:51.142359 27575 net.cpp:408] scale3b_branch2a <- res3b_branch2a
I0723 02:11:51.142371 27575 net.cpp:369] scale3b_branch2a -> res3b_branch2a (in-place)
I0723 02:11:51.142441 27575 layer_factory.hpp:77] Creating layer scale3b_branch2a
I0723 02:11:51.142632 27575 net.cpp:124] Setting up scale3b_branch2a
I0723 02:11:51.142654 27575 net.cpp:131] Top shape: 8 64 112 112 (6422528)
I0723 02:11:51.142678 27575 net.cpp:139] Memory required for data: 2034335840
I0723 02:11:51.142690 27575 layer_factory.hpp:77] Creating layer res3b_branch2a_relu
I0723 02:11:51.142704 27575 net.cpp:86] Creating Layer res3b_branch2a_relu
I0723 02:11:51.142714 27575 net.cpp:408] res3b_branch2a_relu <- res3b_branch2a
I0723 02:11:51.142724 27575 net.cpp:369] res3b_branch2a_relu -> res3b_branch2a (in-place)
I0723 02:11:51.143450 27575 net.cpp:124] Setting up res3b_branch2a_relu
I0723 02:11:51.143471 27575 net.cpp:131] Top shape: 8 64 112 112 (6422528)
I0723 02:11:51.143481 27575 net.cpp:139] Memory required for data: 2060025952
I0723 02:11:51.143488 27575 layer_factory.hpp:77] Creating layer res3b_branch2b
I0723 02:11:51.143504 27575 net.cpp:86] Creating Layer res3b_branch2b
I0723 02:11:51.143514 27575 net.cpp:408] res3b_branch2b <- res3b_branch2a
I0723 02:11:51.143527 27575 net.cpp:382] res3b_branch2b -> res3b_branch2b
I0723 02:11:51.148502 27575 net.cpp:124] Setting up res3b_branch2b
I0723 02:11:51.148527 27575 net.cpp:131] Top shape: 8 64 112 112 (6422528)
I0723 02:11:51.148537 27575 net.cpp:139] Memory required for data: 2085716064
I0723 02:11:51.148548 27575 layer_factory.hpp:77] Creating layer bn3b_branch2b
I0723 02:11:51.148561 27575 net.cpp:86] Creating Layer bn3b_branch2b
I0723 02:11:51.148571 27575 net.cpp:408] bn3b_branch2b <- res3b_branch2b
I0723 02:11:51.148582 27575 net.cpp:369] bn3b_branch2b -> res3b_branch2b (in-place)
I0723 02:11:51.148874 27575 net.cpp:124] Setting up bn3b_branch2b
I0723 02:11:51.148890 27575 net.cpp:131] Top shape: 8 64 112 112 (6422528)
I0723 02:11:51.148898 27575 net.cpp:139] Memory required for data: 2111406176
I0723 02:11:51.148912 27575 layer_factory.hpp:77] Creating layer scale3b_branch2b
I0723 02:11:51.148926 27575 net.cpp:86] Creating Layer scale3b_branch2b
I0723 02:11:51.148934 27575 net.cpp:408] scale3b_branch2b <- res3b_branch2b
I0723 02:11:51.148952 27575 net.cpp:369] scale3b_branch2b -> res3b_branch2b (in-place)
I0723 02:11:51.149055 27575 layer_factory.hpp:77] Creating layer scale3b_branch2b
I0723 02:11:51.149257 27575 net.cpp:124] Setting up scale3b_branch2b
I0723 02:11:51.149277 27575 net.cpp:131] Top shape: 8 64 112 112 (6422528)
I0723 02:11:51.149286 27575 net.cpp:139] Memory required for data: 2137096288
I0723 02:11:51.149312 27575 layer_factory.hpp:77] Creating layer res3b
I0723 02:11:51.149328 27575 net.cpp:86] Creating Layer res3b
I0723 02:11:51.149338 27575 net.cpp:408] res3b <- res3a_res3a_relu_0_split_1
I0723 02:11:51.149348 27575 net.cpp:408] res3b <- res3b_branch2b
I0723 02:11:51.149360 27575 net.cpp:382] res3b -> res3b
I0723 02:11:51.149403 27575 net.cpp:124] Setting up res3b
I0723 02:11:51.149418 27575 net.cpp:131] Top shape: 8 64 112 112 (6422528)
I0723 02:11:51.149428 27575 net.cpp:139] Memory required for data: 2162786400
I0723 02:11:51.149435 27575 layer_factory.hpp:77] Creating layer res3b_relu
I0723 02:11:51.149446 27575 net.cpp:86] Creating Layer res3b_relu
I0723 02:11:51.149454 27575 net.cpp:408] res3b_relu <- res3b
I0723 02:11:51.149464 27575 net.cpp:369] res3b_relu -> res3b (in-place)
I0723 02:11:51.151274 27575 net.cpp:124] Setting up res3b_relu
I0723 02:11:51.151305 27575 net.cpp:131] Top shape: 8 64 112 112 (6422528)
I0723 02:11:51.151321 27575 net.cpp:139] Memory required for data: 2188476512
I0723 02:11:51.151335 27575 layer_factory.hpp:77] Creating layer res4a_branch2a
I0723 02:11:51.151363 27575 net.cpp:86] Creating Layer res4a_branch2a
I0723 02:11:51.151381 27575 net.cpp:408] res4a_branch2a <- res3b
I0723 02:11:51.151404 27575 net.cpp:382] res4a_branch2a -> res4a_branch2a
I0723 02:11:51.156909 27575 net.cpp:124] Setting up res4a_branch2a
I0723 02:11:51.156936 27575 net.cpp:131] Top shape: 8 128 56 56 (3211264)
I0723 02:11:51.156945 27575 net.cpp:139] Memory required for data: 2201321568
I0723 02:11:51.156956 27575 layer_factory.hpp:77] Creating layer bn4a_branch2a
I0723 02:11:51.156970 27575 net.cpp:86] Creating Layer bn4a_branch2a
I0723 02:11:51.156978 27575 net.cpp:408] bn4a_branch2a <- res4a_branch2a
I0723 02:11:51.156989 27575 net.cpp:369] bn4a_branch2a -> res4a_branch2a (in-place)
I0723 02:11:51.157281 27575 net.cpp:124] Setting up bn4a_branch2a
I0723 02:11:51.157299 27575 net.cpp:131] Top shape: 8 128 56 56 (3211264)
I0723 02:11:51.157307 27575 net.cpp:139] Memory required for data: 2214166624
I0723 02:11:51.157321 27575 layer_factory.hpp:77] Creating layer scale4a_branch2a
I0723 02:11:51.157335 27575 net.cpp:86] Creating Layer scale4a_branch2a
I0723 02:11:51.157343 27575 net.cpp:408] scale4a_branch2a <- res4a_branch2a
I0723 02:11:51.157354 27575 net.cpp:369] scale4a_branch2a -> res4a_branch2a (in-place)
I0723 02:11:51.157423 27575 layer_factory.hpp:77] Creating layer scale4a_branch2a
I0723 02:11:51.157600 27575 net.cpp:124] Setting up scale4a_branch2a
I0723 02:11:51.157618 27575 net.cpp:131] Top shape: 8 128 56 56 (3211264)
I0723 02:11:51.157626 27575 net.cpp:139] Memory required for data: 2227011680
I0723 02:11:51.157639 27575 layer_factory.hpp:77] Creating layer res4a_branch2a_relu
I0723 02:11:51.157650 27575 net.cpp:86] Creating Layer res4a_branch2a_relu
I0723 02:11:51.157660 27575 net.cpp:408] res4a_branch2a_relu <- res4a_branch2a
I0723 02:11:51.157671 27575 net.cpp:369] res4a_branch2a_relu -> res4a_branch2a (in-place)
I0723 02:11:51.158448 27575 net.cpp:124] Setting up res4a_branch2a_relu
I0723 02:11:51.158468 27575 net.cpp:131] Top shape: 8 128 56 56 (3211264)
I0723 02:11:51.158476 27575 net.cpp:139] Memory required for data: 2239856736
I0723 02:11:51.158484 27575 layer_factory.hpp:77] Creating layer res4a_branch2b
I0723 02:11:51.158500 27575 net.cpp:86] Creating Layer res4a_branch2b
I0723 02:11:51.158509 27575 net.cpp:408] res4a_branch2b <- res4a_branch2a
I0723 02:11:51.158524 27575 net.cpp:382] res4a_branch2b -> res4a_branch2b
I0723 02:11:51.162134 27575 net.cpp:124] Setting up res4a_branch2b
I0723 02:11:51.162156 27575 net.cpp:131] Top shape: 8 3 56 56 (75264)
I0723 02:11:51.162164 27575 net.cpp:139] Memory required for data: 2240157792
I0723 02:11:51.162175 27575 layer_factory.hpp:77] Creating layer bn4a_branch2b
I0723 02:11:51.162190 27575 net.cpp:86] Creating Layer bn4a_branch2b
I0723 02:11:51.162199 27575 net.cpp:408] bn4a_branch2b <- res4a_branch2b
I0723 02:11:51.162212 27575 net.cpp:369] bn4a_branch2b -> res4a_branch2b (in-place)
I0723 02:11:51.162503 27575 net.cpp:124] Setting up bn4a_branch2b
I0723 02:11:51.162521 27575 net.cpp:131] Top shape: 8 3 56 56 (75264)
I0723 02:11:51.162528 27575 net.cpp:139] Memory required for data: 2240458848
I0723 02:11:51.162542 27575 layer_factory.hpp:77] Creating layer scale4a_branch2b
I0723 02:11:51.162555 27575 net.cpp:86] Creating Layer scale4a_branch2b
I0723 02:11:51.162564 27575 net.cpp:408] scale4a_branch2b <- res4a_branch2b
I0723 02:11:51.162575 27575 net.cpp:369] scale4a_branch2b -> res4a_branch2b (in-place)
I0723 02:11:51.162641 27575 layer_factory.hpp:77] Creating layer scale4a_branch2b
I0723 02:11:51.162827 27575 net.cpp:124] Setting up scale4a_branch2b
I0723 02:11:51.162843 27575 net.cpp:131] Top shape: 8 3 56 56 (75264)
I0723 02:11:51.162851 27575 net.cpp:139] Memory required for data: 2240759904
I0723 02:11:51.162863 27575 layer_factory.hpp:77] Creating layer pool5
I0723 02:11:51.162879 27575 net.cpp:86] Creating Layer pool5
I0723 02:11:51.162889 27575 net.cpp:408] pool5 <- res4a_branch2b
I0723 02:11:51.162902 27575 net.cpp:382] pool5 -> pool5
I0723 02:11:51.163681 27575 net.cpp:124] Setting up pool5
I0723 02:11:51.163698 27575 net.cpp:131] Top shape: 8 3 1 1 (24)
I0723 02:11:51.163707 27575 net.cpp:139] Memory required for data: 2240760000
I0723 02:11:51.163713 27575 layer_factory.hpp:77] Creating layer pool5_pool5_0_split
I0723 02:11:51.163724 27575 net.cpp:86] Creating Layer pool5_pool5_0_split
I0723 02:11:51.163733 27575 net.cpp:408] pool5_pool5_0_split <- pool5
I0723 02:11:51.163745 27575 net.cpp:382] pool5_pool5_0_split -> pool5_pool5_0_split_0
I0723 02:11:51.163760 27575 net.cpp:382] pool5_pool5_0_split -> pool5_pool5_0_split_1
I0723 02:11:51.163825 27575 net.cpp:124] Setting up pool5_pool5_0_split
I0723 02:11:51.163839 27575 net.cpp:131] Top shape: 8 3 1 1 (24)
I0723 02:11:51.163864 27575 net.cpp:131] Top shape: 8 3 1 1 (24)
I0723 02:11:51.163872 27575 net.cpp:139] Memory required for data: 2240760192
I0723 02:11:51.163880 27575 layer_factory.hpp:77] Creating layer loss
I0723 02:11:51.163892 27575 net.cpp:86] Creating Layer loss
I0723 02:11:51.163902 27575 net.cpp:408] loss <- pool5_pool5_0_split_0
I0723 02:11:51.163911 27575 net.cpp:408] loss <- label_data_1_split_0
I0723 02:11:51.163925 27575 net.cpp:382] loss -> loss
I0723 02:11:51.163954 27575 layer_factory.hpp:77] Creating layer loss
I0723 02:11:51.164814 27575 net.cpp:124] Setting up loss
I0723 02:11:51.164834 27575 net.cpp:131] Top shape: (1)
I0723 02:11:51.164841 27575 net.cpp:134]     with loss weight 1
I0723 02:11:51.164870 27575 net.cpp:139] Memory required for data: 2240760196
I0723 02:11:51.164877 27575 layer_factory.hpp:77] Creating layer acc/top-1
I0723 02:11:51.164896 27575 net.cpp:86] Creating Layer acc/top-1
I0723 02:11:51.164906 27575 net.cpp:408] acc/top-1 <- pool5_pool5_0_split_1
I0723 02:11:51.164916 27575 net.cpp:408] acc/top-1 <- label_data_1_split_1
I0723 02:11:51.164929 27575 net.cpp:382] acc/top-1 -> acc/top-1
I0723 02:11:51.164943 27575 net.cpp:382] acc/top-1 -> class
I0723 02:11:51.165009 27575 net.cpp:124] Setting up acc/top-1
I0723 02:11:51.165024 27575 net.cpp:131] Top shape: (1)
I0723 02:11:51.165032 27575 net.cpp:131] Top shape: 3 (3)
I0723 02:11:51.165040 27575 net.cpp:139] Memory required for data: 2240760212
I0723 02:11:51.165048 27575 net.cpp:202] acc/top-1 does not need backward computation.
I0723 02:11:51.165062 27575 net.cpp:200] loss needs backward computation.
I0723 02:11:51.165071 27575 net.cpp:200] pool5_pool5_0_split needs backward computation.
I0723 02:11:51.165081 27575 net.cpp:200] pool5 needs backward computation.
…
